modelos/modelo_lstm.pth (torch, 102384 bytes, 6 tensors)

lstm.weight_ih_l0 f4 [256, 6]
00000000: f7c3 2cbe b46b 3fbe 26dc 48bd 1987 61be
00000010: 8a59 ec3e 0314 2dbe f069 25be 9e0f 72bd
00000020: 46bf e0bc 70dd a2bd 3ad0 02be 96be 3a3c
00000030: 6f48 50be a653 75be 8fa5 94be 62f7 afbe
00000040: 0ded 03bf 1ac3 a3be e766 d73d 6ffd a2bd
00000050: 0e4d b93d 9fa8 82bd c00e 993d 6ae1 5fbe
00000060: 4508 0cbb 5b3c ce3d 62de b7bd 17de dfbd
00000070: d1d8 c1be 9ab1 08bf 8e56 8abb ac73 1c3d
00000080: a77a 203e 231c 9a3d 72e3 4a3e 2af8 3ebd
00000090: 9628 ef3d ed7a 023d c03a 1d3e 3067 013e
000000a0: f8b5 7ebe f154 e53c 739e d03d eceb fa3d
000000b0: 62f4 8e3d 67d7 2f3e b3b1 b83d 88ab 433d
000000c0: 4287 2ebd b62a c73c dbb9 913d 9c53 f2bc
000000d0: 7271 b2bb 7d87 7bbd 8557 3fbe 8357 1bbe
000000e0: 483e 9ebd 10ff 5abe 2e4e 78bc e552 bfbe
000000f0: b007 013e b198 9e3b c5d0 6a3d 433e 99bd
00000100: de0e 483e 33b7 6039 6346 2e3e 1484 363e
00000110: 2086 8e3d 3267 b53d 4ca4 c43d 5a09 2cbd
00000120: 5b4e bfbd 5cae 91bd 0e9c bdbb d3ea 8d3c
00000130: 2f78 153d 7121 dfbe c555 ec3d e73a b83d
00000140: 2542 df3d 45e5 413c 2b8c 00bf cda8 8fbe
00000150: 09ff f4bd b6a8 eebd c791 aebd a2e9 103d
00000160: 7130 383e 3740 3cbd 2d0e 59bd 8d56 ee3c
00000170: dd6c 38bc 2658 833c a807 85be d8e2 90bf
00000180: 8c0f d63d 9362 293e 4462 ab3d 2bd0 4d3e
00000190: f7df 573f 8def bcbe f776 80bb 37d2 8c3d
000001a0: c338 0dbe eb56 943d 11c5 18bd c526 88be
000001b0: 4ef0 443d fccf c33d 48bd 26bd 0033 2d3d
000001c0: 49aa 253d 7f0f b6be 23a9 813d 922d 2b3e
000001d0: b651 573d e622 b13b 2226 4d3e 6584 703c
000001e0: d9e3 9e3d 4ff0 aa3d 72c7 b93d 085d ad3c
000001f0: b9da 6bbe f562 3bbe a0d1 5f3e 71f5 2a3e
00000200: f399 3e3e 61d5 283e 0715 04be 08c8 c13d
00000210: 1fae 9b3c c7d7 713c 33b7 0dbd fe4f b1ba
00000220: 9b48 24bf c0ad 62be 2bb8 6d3c fb8f 403e
00000230: fcad 623e 5031 133e 34e9 ccbe 3bee 853c
00000240: f5cb f5bd e9e2 25be bfc6 ea3c 361e 5c3c
00000250: 975e b4bd d73c b8be 46f4 c5bd 4ef2 89be
00000260: f77a 3abe e350 77be ae40 d6be b24f 0abf
00000270: 1058 663d 1b23 da3d 3186 9ebc 1a68 063e
00000280: e81a 983e c01f 05bf 2479 663d db88 ce3c
00000290: b565 b43d dc26 3a3e 7c58 2e3f 353e fbbd
000002a0: d701 42bd 6c44 d63d d0b5 14bd 0d64 d13d
000002b0: 82f6 4d3e ffee 54be 60f1 a53b c542 c1bd
000002c0: 018e aabd fb5f 483d 1f05 9fbe 2bd8 00be
000002d0: 1bff 243d 7572 b83d b2a6 cb3d 8917 a13d
000002e0: ff24 a6bd ce58 6bbe 8892 4dbe d425 68be
000002f0: 9440 26be cf83 0bbe 4e74 17bf ec75 04bf
00000300: 0741 f83d 6ac4 a53c 3214 cc3d 468f d3bc
00000310: 1073 db3e f6c9 64be 694c f8bc 2059 77bd
00000320: b41c 95bd 69ef 93bd 5f60 613e a073 d73e
00000330: 5d9b fdbb b121 d83c 4e48 77bc 574f 54be
00000340: fa8e d43c 9b7f 0fbe 9752 333c 2b01 dd3b
00000350: 9b98 8b3b 34d9 2cbe 7f28 943e 9697 f0ba
00000360: aa74 0ebf 79b6 e2be 3c1f 0ebf 5c43 ebbe
00000370: a498 983e 825c ebbe 365e 7e3e 9d87 873e
00000380: 9598 9e3d 08bb 933d dbdd c43e d149 a73d
00000390: 45ef 533d 8696 b93d e984 ebbc 1513 903d
000003a0: a3e0 ad3e e0fe 1bbe d8eb afbc 5128 8cbe
000003b0: 1910 39bd cd39 43be 2773 113f 7fb1 8fbf
000003c0: 9496 b93d 7209 0f3e 23d5 043d 64af e73c
000003d0: c828 cb3e dc65 613d d126 35bc 6246 853c
000003e0: 5179 303e 9b28 0c3e 2379 593e b3ea 993d
000003f0: ce97 11bb b85a a13c 740b ddbd cfb7 ee3b
-0.1687163 -0.18693429 -0.049038075 -0.22024192 0.46162063 -0.16902165 -0.16153693 -0.059096925
-0.027434956 -0.07952392 -0.12774745 0.011397978 -0.20340131 -0.2395769 -0.2903256 -0.34368426
-0.51533586 -0.31984788 0.10517674 -0.07958495 0.090479 -0.06379818 0.074735165 -0.21863332
-0.0021367234 0.10070106 -0.08977963 -0.10931032 -0.3786073 -0.53396 -0.004221744 0.03819625
0.15671788 0.07524898 0.19813326 -0.046623386 0.11677663 0.031855512 0.15354443 0.12637019
-0.24874103 0.027994605 0.10186472 0.1225203 0.06980206 0.17172013 0.090182684 0.047771007
-0.04260946 0.024312358 0.07115527 -0.029580884 -0.0054456526 -0.06140851 -0.1868573 -0.15170102
-0.07726723 -0.21386361 -0.015155358 -0.3736793 0.12600589 0.0048399796 0.057328004 -0.074825786
0.19536921 0.00021430552 0.17019038 0.17823821 0.06959176 0.088575736 0.0960165 -0.042001106
-0.09341117 -0.071133345 -0.0057864254 0.017323887 0.03649157 -0.435802 0.11539797 0.0899561
0.10901288 0.011834447 -0.5021388 -0.28058472 -0.119627066 -0.11653273 -0.085238986 0.03537906
0.17987229 -0.045959678 -0.052992035 0.029094005 -0.011256424 0.016033243 -0.25982404 -1.1319227
0.10452184 0.1654151 0.08368352 0.20098941 0.8432612 -0.36901513 -0.0039204317 0.06876033
-0.13791184 0.07243141 -0.037297312 -0.2659208 0.048080735 0.09561154 -0.040707856 0.042284966
0.0404456 -0.35558698 0.063310884 0.16716602 0.05256816 0.0054057715 0.20034078 0.014680003
0.07758302 0.083466165 0.09071244 0.021162525 -0.23032655 -0.18299468 0.2185731 0.16695191
0.18613414 0.16487648 -0.12898646 0.09461981 0.019003926 0.014760918 -0.03459854 -0.0013527868
-0.6417329 -0.22136593 0.014509241 0.18804924 0.22136682 0.1437428 -0.4002167 0.016348949
-0.12001792 -0.1619984 0.028659223 0.013434937 -0.08807104 -0.35983917 -0.09665732 -0.26942676
-0.1821097 -0.2415195 -0.41846222 -0.54027855 0.056236327 0.10651227 -0.019351097 0.13125649
0.29708028 -0.5200157 0.056267872 0.025211742 0.088084616 0.18178886 0.68103766 -0.122677244
-0.047365036 0.10462269 -0.036306202 0.10224161 0.20113567 -0.20794295 0.0050641745 -0.094365634
-0.08327866 0.04891966 -0.31058595 -0.12582462 0.04028235 0.09006206 0.09943904 0.07865817
-0.08112525 -0.22983095 -0.20075428 -0.2267068 -0.16235572 -0.136245 -0.5916184 -0.51742435
0.12121778 0.02023526 0.099647895 -0.025825154 0.42861223 -0.22342667 -0.030309873 -0.06038773
-0.07280865 -0.07223398 0.22009419 0.42080402 -0.007739468 0.026383253 -0.015092922 -0.20733391
0.025947083 -0.14013521 0.010944984 0.006744524 0.0042601353 -0.16879731 0.28937146 -0.0018355723
-0.55646765 -0.4427984 -0.5551641 -0.4594983 0.29803956 -0.45969015 0.24840626 0.26470652
0.077439465 0.07213408 0.38450512 0.08168376 0.051741857 0.09061913 -0.0287499 0.070348896
0.33960447 -0.15233946 -0.021474764 -0.2737451 -0.045181368 -0.19065018 0.56816334 -1.1226043
0.090619236 0.13968447 0.032429826 0.028281875 0.3967955 0.05502878 -0.011056618 0.016268913
0.17233779 0.13687365 0.21237616 0.075154684 -0.0022215727 0.019696578 -0.107932 0.0072850953

lstm.weight_hh_l0 f4 [256, 64]
00000000: be56 3f3e ddaf 49bc 1137 d83e 4558 3abd
00000010: 0d71 54bd c801 9c3d babe b83e b475 14bf
00000020: 99de b1bc 1246 403f f2d4 05be e167 d9be
00000030: bdce 65bd 3cc3 393f fb44 18be 075c 2e3e
00000040: ad8b 9fbf ede2 683d 4b46 b23e 9f6e 76be
00000050: f2f3 a03e 8f9f 38bf 9a69 febe 5b6d ed3e
00000060: 9e4d ccbe 016a f03e ad6a dbbe 09e6 133d
00000070: fdd3 513e 8e47 ad3e 805a 11bd cc2b 6d3e
00000080: 6b96 3d3c 9d50 f9be 9afd 83be 13fb 053e
00000090: c032 2d3f 9e71 87be b47f 1c3e 712f b2be
000000a0: a393 013e 749c 82be 540a 2abe ae41 aebc
000000b0: 2152 9f3e 5e8c e8bd 0184 433f bf41 a8bd
000000c0: ba87 1b3f 164e 5b3d 81a5 4bbf 3bb5 6f3e
000000d0: 9f6f c1be 7d95 12be a4d1 393c acf4 16bf
000000e0: 9332 49bd d130 dbbe c6b8 ac3e 5dc1 43be
000000f0: 6f6d 8bbe 35c8 a23e db42 c23d e44d 913e
00000100: 3380 5b3d 0f50 043e d8b1 473d f1c5 55bd
00000110: 66d0 f63c 3837 213e d857 c03d 4a5d dfbd
00000120: c597 e5bd 68d9 48be 0b42 4dbe 10c8 4ebe
00000130: 6b8c c2bc 1875 f73d 8e0b 5e3d 9f72 233f
00000140: 660a aa3e d26f dd3d ecb6 5dbe 0fd2 be3e
00000150: 5ad7 f43e 0af0 1fbe 2341 143d 99a4 573e
00000160: d12d 86be 7ac7 263d 92ae 6b3e 6e4b a83d
00000170: 098d f9bc 4518 9d3e 975d 40bd b51d 33bf
00000180: f3bc 0a3d 8b21 e83e 3546 9a3e 0908 c03e
00000190: 183f 3e3e e1e0 c4bc 1040 e83d a422 343f
000001a0: 7227 613e 6c04 e7be 85a8 9abc 2ccd 24be
000001b0: 32e4 a0bd eb36 12be fe37 033f 85ac 833e
000001c0: a132 88be 2182 59be 7901 69be 2d6f a53e
000001d0: 54cf 2f3e 050d 57be d990 703e 1d48 c9bc
000001e0: 1b70 e7be f947 92bd 9fa5 ec3d 1af5 363e
000001f0: ab1b a3be dc24 27bd 770f e13e 4e69 9c3e
00000200: 543a cf3e 868e 473e e6cd e8be 92c4 79be
00000210: c4f6 0e3f 25d3 113e 4ce4 893e 6607 f1bd
00000220: a61d c0bd 2f80 41bd eca8 69bd 5687 67be
00000230: 0450 e1bd 8add a5be d000 18be 9471 083d
00000240: c437 01be b326 be3e d1a1 f6be 7f89 543e
00000250: f743 3e3f 7fa8 2f3e 9e4f 74be ac47 61bd
00000260: e88b a2bd 1da8 20bb 8405 733e 4515 993e
00000270: 4178 78be 53c9 823e f703 003e 6e24 3cbe
00000280: a493 79bd 2d42 d83e 301d 9d3e e391 cd3e
00000290: 0883 5fbe d087 473d a9e2 8b3e 9f9e c63c
000002a0: 76b3 673d 10cd a2be 797b 8dbe 31af 4abe
000002b0: f967 7f3d c3e2 ed3d d9b3 e83c a9d2 b53e
000002c0: af23 13bf c0d8 aebd 345b 873e 7d68 a13e
000002d0: 9e20 b13d ee95 793d eade 86be 0691 debd
000002e0: 578e b8be 6d0f 4e3d 05d5 853d ae7e a03e
000002f0: 01bb 4abc 3b9c 003d 210f b43d 64d1 433e
00000300: 7aa4 ca3d 7952 53bc 94a1 203e a999 8abd
00000310: 437b eebc 0b13 403e f353 963d 00d7 3eba
00000320: dbc6 64be f90b ed3d b53e 85be 1639 14be
00000330: 50ec 59be 1e67 6f3e 3e83 76be e29b dc3d
00000340: 1ec1 86be bfe5 26bd a3b8 82bd 56c4 f8bd
00000350: 4da4 9b3e a013 123e b8fa 99bd 0b0b 1dbd
00000360: aad8 aabc 0aae 973e 1697 f1bd 5402 c43c
00000370: b6d0 d8bd ef90 f8bd 562e 1b3e aa34 87bd
00000380: 5cf9 80be a152 333d f3f7 753e 7ae2 df3d
00000390: 7d68 403e ec14 aabd 2989 58bc 9fc5 153e
000003a0: e046 3b3c f9d6 e03c 9337 64bd cda6 0bbd
000003b0: 7796 4bbe 3df7 53be 0445 db3d f8d8 cbbd
000003c0: 65b1 dabd 4f4e 8c3d ca64 3fbe 9cc1 193c
000003d0: fb88 693c 4b88 e2bc 3484 3dbe ff53 4cbe
000003e0: 2659 65bd 5a5a ebbe 54bd 723d b98b d13d
000003f0: 2c1f 823d 3fe0 c93e 8436 d93d bfe3 d7bc
0.18685433 -0.0123099955 0.42229512 -0.045494337 -0.051865626 0.07617527 0.36083013 -0.579921
-0.021712588 0.7510692 -0.13069513 -0.42462066 -0.056105364 0.7256353 -0.14870064 0.17027293
-1.2464501 0.05685704 0.34819254 -0.24065636 0.31436116 -0.7211847 -0.49689943 0.46372494
-0.39902967 0.46955875 -0.42854825 0.03610805 0.20491023 0.33843654 -0.0354867 0.23161238
0.011571507 -0.48694316 -0.2577942 0.13084058 0.67655563 -0.2645387 0.1528309 -0.3480182
0.12653975 -0.2550999 -0.16605502 -0.021271553 0.31117347 -0.11354898 0.76373297 -0.08215665
0.6075398 0.053541265 -0.79549414 0.23408978 -0.37780473 -0.14314838 0.011341486 -0.5896709
-0.049120497 -0.4281068 0.3373472 -0.19116731 -0.2723193 0.3179337 0.09485408 0.28379738
0.053589057 0.12921165 0.04875359 -0.052190725 0.030128669 0.1574372 0.09391755 -0.10906465
-0.11210588 -0.19614184 -0.20044725 -0.20193505 -0.023748597 0.12082881 0.05421024 0.6384677
0.33211058 0.10812344 -0.2165181 0.37269637 0.4782055 -0.15618911 0.03619493 0.21058883
-0.2620683 0.04071758 0.23015812 0.08217512 -0.030462759 0.3068258 -0.046964254 -0.69967204
0.033871602 0.4533809 0.3013169 0.3750613 0.18578756 -0.024033012 0.11340344 0.7036536
0.21987703 -0.4512056 -0.018879184 -0.16093892 -0.07856025 -0.14278762 0.5125731 0.2571756
-0.26601127 -0.21241046 -0.22754468 0.32311383 0.17168933 -0.2100106 0.23492755 -0.02457052
-0.45202717 -0.07142634 0.11555027 0.17866936 -0.31857046 -0.040806636 0.4395711 0.3054909
0.40474188 0.19487962 -0.45469588 -0.24391392 0.55845284 0.14240701 0.2693199 -0.11768989
-0.09380655 -0.047241386 -0.057045862 -0.2261022 -0.1100159 -0.32395583 -0.1484406 0.03331144
-0.12618929 0.371389 -0.4817033 0.20755576 0.74322456 0.1715412 -0.23858497 -0.054999992
-0.07936841 -0.0024514266 0.23732573 0.2989904 -0.24264623 0.25544223 0.12501512 -0.18373272
-0.060931817 0.42237988 0.3068633 0.40150365 -0.21827328 0.048713505 0.27321365 0.024245558
0.05656763 -0.31797075 -0.27633265 -0.19793393 0.062355015 0.11615517 0.02840607 0.35512283
-0.57476324 -0.085374355 0.2643677 0.3152503 0.08648799 0.060934 -0.26341945 -0.10867505
-0.36046097 0.05030768 0.06534771 0.3134665 -0.012373687 0.031398993 0.08791948 0.19122845
0.09894653 -0.012898081 0.15686637 -0.067675896 -0.02911151 0.18757264 0.07340231 -0.00072799623
-0.22341482 0.11574549 -0.26024404 -0.14474902 -0.21281552 0.2337918 -0.24073502 0.1077192
-0.26319212 -0.040746447 -0.06382873 -0.12146823 0.3039879 0.14265299 -0.07518524 -0.03834061
-0.020855267 0.2962497 -0.117963955 0.023926891 -0.105866835 -0.12137019 0.15154395 -0.06601842
-0.25190246 0.043779973 0.24020366 0.10931869 0.18789859 -0.08304772 -0.013216295 0.14626168
0.011430472 0.027446257 -0.055717062 -0.03409462 -0.19881617 -0.20699783 0.10706523 -0.09953493
-0.106783666 0.06850874 -0.18690792 0.009384539 0.01425385 -0.02765288 -0.18507463 -0.19953917
-0.05599322 -0.4596737 0.05926259 0.10231728 0.06353602 0.394289 0.10606101 -0.026353715

lstm.bias_ih_l0 f4 [256]
00000000: fb56 24be b682 973c 419f 96be 9c3d 30be
00000010: f850 bdbd 2d11 05be 1f64 b03d 50b2 3abe
00000020: 105e 1fbe 7ffb 9abd 0b42 f9bd 0f1e 2abe
00000030: 7aff acbd 7ef1 11be 873f 6dbd 40aa 45bd
00000040: 25f1 763d b085 e03c 856c 58be 2542 adbd
00000050: f1fa e9bd 9601 423e 1712 e1bd dd62 713d
00000060: 0824 17be 4d6a 243d 1ece 1e3e 8782 4ebd
00000070: c2f2 17bd 3535 18be bfb7 4bbd c47c 8bbe
00000080: 1e64 b5bd 930b d03d ec38 ffbd 42af 02bd
00000090: b8e9 c739 8cd3 92bb 0c9b b3bc f461 04be
000000a0: 418a 343d 0b27 ffbc 5169 0cbc 6078 91bd
000000b0: 8b5d ca3c 2b88 8fbe 2492 b23d 198c a23d
000000c0: 1cce 8bbd 4f2a 1cbe 5814 25be 644d 9ebd
000000d0: 9c75 363d 5ac9 f73d c395 8abe 3b2e 80bc
000000e0: bde5 eebd 0d1f abbc 9bea 89bd ac31 89bd
000000f0: bb6d 56be 4a0e 4dbe 2788 90bd 361d 073d
00000100: 7c7b 053e df8b 6b3e fb2f a63d 6646 e9bd
00000110: a0fb 823d 43d4 bebd f266 143c 5b7a 7abd
00000120: ae0f 603d e986 6bbe bcc2 8abc fa18 aebd
00000130: 7f80 58be 9c41 e0bd e814 c7bd eda1 383d
00000140: 6ecd ed3c 9020 173c 687a c9bd eb21 613d
00000150: d3d8 903d ce1f 38bd 4e79 49be 97d3 69bc
00000160: 4e69 b8be c476 243e 37a8 00bd 7d3c 0e3e
00000170: def5 28be 863d c3bc aabf 00bd dd1b fd3e
00000180: d955 943d 2a3e c03d 668d c7bd e994 81be
00000190: 43e4 b93c a6e7 09bd f763 38be f110 12bd
000001a0: d3d3 0abe 4cf4 e23c f705 2fbe 0eb3 0dbe
000001b0: a58c 003e 11b6 d6bd ec9f 2cbe 22eb d43e
000001c0: 2678 a73c 5033 753c 6ecf 66bb 3e2c 9b3c
000001d0: 5839 80bc 0850 243e 9d59 2b3d ad79 3dbe
000001e0: 236a f6bd d26f b73e 13a1 58be 6814 b0bd
000001f0: f972 efbd 3c97 9d3e f016 debc 8a9d 85bc
00000200: 4ef3 59bd a7aa 83bd dc26 b5bd 875c 4abd
00000210: f230 713d 6c2b e93d 2e99 6dbe 6b7e 543b
00000220: de9c d4ba 4000 3dbe 8cff bc3d 325d 863d
00000230: a061 0ebd 07e4 e3bd fc2b 1e3e dd82 d23c
00000240: a77e fd3d 3566 c2bc 42f1 333d 19b7 9e3d
00000250: 5c07 bbbd de1b eabd 5db1 233d 416f 2a3d
00000260: c9c8 3e3d 6a8b 8c3c 8b5c 47be 7d6a 113e
00000270: 28ff cc3d 4d10 f23d ebc5 5abd c935 8f3c
00000280: e932 bd3c 1f63 ce3b 5b38 15bd aced 3abc
00000290: 443e cf3d cd08 b3bd c4d4 103d bb87 233e
000002a0: 8ad7 be3c 2664 fabc 5afe 563d 7cf1 333d
000002b0: 1de2 5e3d ce39 0bbe fd69 ddbb 3dd2 663d
000002c0: dc4d 813d 87b7 233c 505c cb3c 28ed e13d
000002d0: e239 473e 57d1 34be 3e8e 22bc 6fb9 8d3c
000002e0: 686a 1fbe 6f02 d6bd 98a0 acbc da80 4dbd
000002f0: e783 7a3c 7b71 b6bc 669d 7a3c 2dc6 393d
00000300: bb6e 5fbe f9ac 2ebd d640 d6bd 1ef3 4abd
00000310: 89fb 99bd 119f bebd 930d f5bd 1da1 2abe
00000320: 11f3 a2bd e136 50be 7d53 27be 42bc 49be
00000330: 866f 7dbc 2559 b4bd 1892 8a3d 813d 9fbd
00000340: 11a3 563e e7bd 2cbe 94e0 92bd 21f6 42be
00000350: 4f59 4b3b 3b04 803e 5817 e1bd e0cc 9cbd
00000360: e1f0 78be b479 c83d d80e 12bd 59bc 34be
00000370: 2c8b 1abe 9892 3fbe 874f 2abe a73f 2f3e
00000380: 4382 e4bd 8a87 c73d 3426 103d bbff 59be
00000390: b9d3 bdbc c671 d53d 2ec6 46be dbda d7bd
000003a0: 4317 aabd 046b 0a3c 2571 54bd af64 b8bd
000003b0: 7bed 9b3d 51f2 38be 0d38 123d 9eee 6e3c
000003c0: ac57 25be 983e 8a3d 9e67 b83d 6cd5 7dbd
000003d0: c1b2 02be ad23 8c3d a313 a23d 8418 f9bd
000003e0: 66ba e63b 2993 083e 9cbb e2bd c8ba f6bd
000003f0: 42ac e9bd 9c9e ba3c 3f8a 2abd df96 efbd
-0.16048805 0.018494945 -0.29418376 -0.17211002 -0.09243959 -0.12994833 0.086128466 -0.18232083
-0.15563226 -0.075675 -0.121708 -0.16613029 -0.08447166 -0.14252278 -0.057921913 -0.048258066
0.060288567 0.027407497 -0.21135147 -0.08459882 -0.114248164 0.18945917 -0.109897785 0.058932174
-0.14759839 0.04014044 0.15508315 -0.05041745 -0.037096746 -0.14864047 -0.04973578 -0.27243626
-0.088569865 0.101584576 -0.12462029 -0.03190542 0.00038130372 -0.0044807848 -0.021924518 -0.12927991
0.04407716 -0.031146547 -0.008570031 -0.07103038 0.024702808 -0.28033575 0.0871928 0.07936878
-0.068264216 -0.15250514 -0.16121042 -0.07729605 0.044545755 0.12098952 -0.27067384 -0.015647044
-0.11664913 -0.02088883 -0.067342006 -0.06698927 -0.20940296 -0.20024982 -0.07057219 0.032986842
0.13035387 0.23002575 0.0811462 -0.113903806 0.0639565 -0.093178295 0.009057747 -0.061151844
0.054702453 -0.23000683 -0.01693856 -0.08500858 -0.21142767 -0.10950014 -0.097207844 0.0450763
0.02902862 0.009224072 -0.098378 0.054963987 0.07072606 -0.044952206 -0.1967518 -0.014271638
-0.3601784 0.1606093 -0.031410422 0.13890262 -0.16500041 -0.023833048 -0.031432785 0.4943532
0.07242937 0.09386857 -0.097437665 -0.25308922 0.022691851 -0.033668183 -0.18006884 -0.035660688
-0.13557367 0.02770438 -0.17092119 -0.13837835 0.12553652 -0.10483945 -0.1685788 0.41585642
0.020443033 0.014965847 -0.0035218853 0.018941995 -0.015652344 0.16046154 0.04183351 -0.18503447
-0.12031963 0.358275 -0.21155195 -0.08597642 -0.11691851 0.30779445 -0.027110547 -0.016310472
-0.05321055 -0.06429034 -0.088453025 -0.049404647 0.05888457 0.11385235 -0.23202965 0.0032423984
-0.0016221066 -0.18457127 0.09228429 0.06560744 -0.03476107 -0.11127477 0.15446466 0.025697166
0.12377673 -0.023730377 0.043931253 0.07749767 -0.09132263 -0.114310965 0.03996407 0.041610006
0.046578202 0.017156322 -0.19468896 0.14200778 0.10009605 0.118195154 -0.053411406 0.017481701
0.023095565 0.0062984372 -0.036430698 -0.011409204 0.10119298 -0.08741913 0.03535916 0.15969746
0.023296136 -0.030565333 0.052488662 0.04393147 0.054414857 -0.1359627 -0.0067570196 0.056352843
0.063136786 0.009992487 0.024824291 0.11031562 0.19455674 -0.17657982 -0.0099216085 0.017300336
-0.15567935 -0.10449683 -0.02107267 -0.05017171 0.015290237 -0.022270909 0.015296316 0.04535501
-0.21819584 -0.04264543 -0.10461585 -0.04954826 -0.0751868 -0.09307683 -0.1196548 -0.16663022
-0.079565175 -0.20333435 -0.16340442 -0.19700721 -0.015468484 -0.088060655 0.067661464 -0.07775403
0.20960642 -0.16869317 -0.07171741 -0.19039203 0.0031028574 0.25003228 -0.109907806 -0.07656264
-0.24310638 0.09788838 -0.035658687 -0.17649974 -0.15092152 -0.18708265 -0.166319 0.17114125
-0.11157658 0.09742649 0.035192683 -0.2128896 -0.023172246 0.10422091 -0.19411537 -0.1053979
-0.08305218 0.008448366 -0.051865716 -0.09003579 0.07613655 -0.18061186 0.035697985 0.014583258
-0.16146725 0.0675022 0.090041384 -0.061971113 -0.12763502 0.06842742 0.07913902 -0.12162879
0.0070412634 0.13337387 -0.1107094 -0.120473444 -0.11409809 0.022780709 -0.041635748 -0.11698698

lstm.bias_hh_l0 f4 [256]
00000000: bb08 23be 7d1a 0d3d d6b8 babd bbfd 7abb
00000010: 5e12 9039 132c 06be 2256 5a3d 69e6 99bc
00000020: 6370 bebd 64d7 33be d583 48bd 2928 493c
00000030: 95f4 07bd bfd6 24be 6a50 f4bc e25f 08be
00000040: daae 4c3e 9893 12be aa73 99bd fff8 e5bd
00000050: c12b 5e3d f451 e23d c5d1 dabd 7800 f13d
00000060: 0de8 7bbe 9fc4 cfb9 c2cc 293e dec6 b6bb
00000070: 655d c4bc 6958 46bd e6b0 07be 0624 b8be
00000080: b2ab 07be 35f2 583e 36a2 3fbe a8c0 c2bb
00000090: 130e 37bd b340 9d3d 082c 3bbe de8d 55be
000000a0: df1d bfbd 9ba4 2fbe 1131 02be 1e3c da3b
000000b0: 57d4 a5bd b615 82be 3479 37bd c839 d63b
000000c0: d8bc 50bd bb9f 3bbe 0998 e8bd 106f cabd
000000d0: e852 54bd da4e 3a3e a525 83bd 9840 5dbd
000000e0: 8178 31bd 749e 493e 2843 52bd 3995 92be
000000f0: edc9 3cbe 3ee8 ddbc 1cf3 0d3d e254 4ebe
00000100: 5396 403d 0162 6e3e 2be2 923d 476f 93bd
00000110: 0ac7 d4bb 4daa 35be 2cfd 363d 1a1d c3bc
00000120: e446 f53d 1449 0bbc 65e2 433d fcc7 cebd
00000130: f9ac 26be 46e1 0f3d 2736 50bd 8fc6 8d3c
00000140: 95dd 913d ccbd 85bd d233 b0bd 28a1 1cbe
00000150: 7995 6bbc cf9b e73d 8047 60be da55 5fbd
00000160: 2e15 b3be 76d1 4d3e ddf5 38be 62fc 853d
00000170: e729 03be 7a73 50ba 8024 4dbe 8d37 013f
00000180: e9b5 d0bc 131e 503d ff95 3a3d 232c 29be
00000190: d9df 16bd 43ec dfbd 6daf 80bc 8fff 073e
000001a0: 8fb6 3ebe a097 cbbd fc47 afbd c4d5 13be
000001b0: c0d9 373d 82de a5bc 918a 4ebc a6b4 b43e
000001c0: 200d 283d 3bc8 5a3e b891 77bc fec4 b43d
000001d0: bdc0 a2bd 522c 503c b2b8 493e 5328 12be
000001e0: 2780 44be 8400 963e 47d2 61be 2e77 07be
000001f0: 260b cf3c 3146 023e 6c7e 2abe bb13 4abe
00000200: a55e 99bd 562b 0dbb 2630 acbd 9351 d6bc
00000210: 6814 d0bd 1ecb 3e3d 8c75 a4bd 5f87 453b
00000220: 1bc1 ddbd 766c 67be 2ace c33d 984d 2abe
00000230: 9b69 febd 17b6 fe3d b6c3 113e fb46 d1bc
00000240: 25d4 f13b 243a b6bd cd95 e9bd 6fbf 973d
00000250: d291 d9bd 5c3b c9bd 5b3a 1a3e 4642 8d3d
00000260: 3534 0c3d 8a1c 56be 401e 043d 7458 b2bc
00000270: 6cd8 0bbe 65e0 ca3c 60b7 1bbd eb33 53bd
00000280: 5bd0 e73d 63bc 8c3c 9b7a d1bd 5664 943d
00000290: 72b2 ce3c 1117 21be b5d8 2d3e 7910 8f3d
000002a0: 5025 a3bc cf6e 22be 1827 23ba 553e 2cbb
000002b0: cff7 483d 7edd a4bc 9982 cd3d 87a1 353e
000002c0: 034d 4a3d 1c02 fa3b 6c8e b63c cd33 643d
000002d0: b925 733d e1d5 13bd f316 623e 0e98 573d
000002e0: 75cf a2bd 27b6 a4bd b15c 223e 8f16 073d
000002f0: 923a d73c 11bb 69bb 8871 e7bd deec c63c
00000300: d965 00be 2718 babd 36c5 47be 56df e43a
00000310: 8581 38bd 6b35 debd df9d 413d 9b8d 7cbe
00000320: 4fd8 86be 939a 44be 9f19 44be 13ce f9bd
00000330: 0f8e eabd e5e8 c63c 3dcc 223d aafd 313d
00000340: 9a02 8f3e 050f c5bd 988e 80bd e468 aabd
00000350: fee6 02be ea61 ab3c 0fd6 47be d6a2 4d3d
00000360: 9592 8bbe 9786 65bd 02dc 743d 5f4b c7bc
00000370: 5af1 95bd 0e2d 78be 7eb7 c8bd f7c2 3c3e
00000380: 62fa 73bd bced 7a3e 6107 0abe 8783 f8bd
00000390: 140b e83d a518 773d 1cc1 e4bd 5afb 31be
000003a0: 2b0c 7ebd 2576 4fbd 9637 6cbe e6c4 053d
000003b0: fbc2 90bd 5b81 21be 57d3 2abd 0c91 3b3e
000003c0: 08bd 3a3c 25fe f2bd 47c8 84bc f921 c4bd
000003d0: cadd d93c 255b 6c3d 615d 78bd d317 a1bc
000003e0: 8fe4 6cbd c745 a33b 828b c9bd bc0d f8bd
000003f0: 7abc 68be 7db4 5dbc 18ac d039 5727 dc3c
-0.15921299 0.03444909 -0.09117286 -0.0038298208 0.00027479505 -0.1310275 0.0533048 -0.018786626
-0.0929878 -0.17562634 -0.04895385 0.012277641 -0.033192236 -0.16097544 -0.0298235 -0.13317826
0.19988576 -0.14314115 -0.07492764 -0.11229133 0.054240946 0.110507876 -0.106845416 0.117676675
-0.24600239 -0.0003962861 0.16582015 -0.005577906 -0.023970315 -0.04842416 -0.13251075 -0.35964984
-0.1324909 0.21186145 -0.18714222 -0.0059433766 -0.044691157 0.07678356 -0.18278515 -0.208549
-0.09331869 -0.17152636 -0.1271403 0.0066599986 -0.08097141 -0.2540719 -0.044793323 0.00653765
-0.050961345 -0.18322651 -0.113571234 -0.09884465 -0.051836878 0.18194142 -0.064036645 -0.05401668
-0.043327812 0.19689351 -0.051333576 -0.28629473 -0.18436404 -0.02708828 0.034655675 -0.20149568
0.04701836 0.23279573 0.07172044 -0.07198959 -0.006493454 -0.17740746 0.044675037 -0.023817588
0.11976412 -0.00850131 0.04782333 -0.10096738 -0.16276921 0.035126947 -0.050832894 0.017306594
0.071223415 -0.065303415 -0.08603634 -0.15295851 -0.014378899 0.11309015 -0.21902275 -0.054525234
-0.34977096 0.20099434 -0.1806254 0.06542279 -0.12808953 -0.00079517777 -0.20033455 0.5047539
-0.025477367 0.05080993 0.045553204 -0.16520743 -0.03683457 -0.10933735 -0.01570865 0.13281082
-0.18624328 -0.099410295 -0.08558652 -0.14437014 0.044885397 -0.020247702 -0.012606279 0.35294074
0.041028142 0.21365444 -0.015110426 0.08826636 -0.07946918 0.012705879 0.19699362 -0.14273195
-0.19189511 0.29297268 -0.2205287 -0.13229057 0.02527387 0.12722088 -0.16649789 -0.19734089
-0.07488755 -0.0021540723 -0.08407621 -0.026161944 -0.10160142 0.046580426 -0.08030233 0.0030140502
-0.108278476 -0.22599968 0.09560807 -0.16631162 -0.124224864 0.12437075 0.14234814 -0.025546541
0.007380026 -0.08897808 -0.11405525 0.0740956 -0.10623516 -0.09825775 0.15061323 0.06897406
0.034229476 -0.20909324 0.03225541 -0.021770693 -0.13656777 0.024765203 -0.038016677 -0.051563185
0.113190375 0.017179674 -0.10228463 0.072457 0.025231574 -0.15731455 0.16977198 0.06985564
-0.019915253 -0.15862583 -0.0006223782 -0.002628227 0.049064454 -0.020125147 0.10034675 0.17737399
0.04938985 0.007629646 0.022284709 0.055713464 0.059362147 -0.036092643 0.22079067 0.052635245
-0.079497255 -0.08042555 0.15855671 0.032980498 0.026273046 -0.0035664479 -0.11300951 0.024282869
-0.12538852 -0.09086638 -0.19508824 0.0017461579 -0.045045394 -0.108500324 0.0472697 -0.24663393
-0.26336905 -0.1919959 -0.19150399 -0.12197509 -0.11452877 0.024280975 0.039745558 0.043454804
0.27931672 -0.096220054 -0.062771976 -0.083207875 -0.12783429 0.020920713 -0.1951525 0.05020412
-0.2726027 -0.056036558 0.05978013 -0.024327932 -0.07321425 -0.24235937 -0.09800623 0.18433748
-0.059564956 0.24504751 -0.13479377 -0.12134462 0.11330238 0.060326237 -0.11169645 -0.1738104
-0.062023323 -0.05064978 -0.2306808 0.03265848 -0.070684396 -0.15772001 -0.041705456 0.1831705
0.011397608 -0.118648805 -0.01620878 -0.09576792 0.026595015 0.05770411 -0.060635928 -0.01966468
-0.057835158 0.0049826833 -0.09841062 -0.121119946 -0.22728148 -0.013531801 0.0003980107 0.026874227

fc.weight f4 [100, 64]
00000000: 5c21 afbd b173 54bd aae9 8cbd d57d 583e
00000010: bc25 d23d 92d7 37be 59bb e5bd 80aa 2f3e
00000020: f47d 723d 76b4 083b 77e1 d13d 94b1 6f3e
00000030: 84de 7e3e 140e 11be b2ca 813d b6e9 2bbd
00000040: 8555 213d 2e9f 82be 20be 2dbd 3cb3 443e
00000050: cda3 113d 615e 763e 609f 853e b710 81be
00000060: 452a 673e 3eb9 35bd aaf4 063e 92f1 f6bd
00000070: 1faf 4d3d e6bf 173d 9a16 08be 5fc8 2e3d
00000080: 38be 95bd 97cf 0bbd f1bd 59be 2028 61be
00000090: aca0 ac3d beed 443e b2ce a5be 8ca1 a43b
000000a0: 250b 9abd 8478 0e3e 250d d13d 0bfa 6b3e
000000b0: cc67 ac3d 25e8 e8bd 4b05 9bbe 966b f0bd
000000c0: 03b8 8b3d 0413 22bd 4398 f53d bb89 15be
000000d0: d710 e3bd eaff 773d 0c3d 06be 9b73 0a3e
000000e0: 5a6a 573e 6e68 393b 3f1d 5ebe 3213 53be
000000f0: ec6e b73d 7e48 dcba 090d 33bd be75 9ebe
00000100: 3bb3 8fbd 3ae2 3abd f30a b0bd 7959 833e
00000110: 3760 d73d d073 0dbe b096 34be 6b23 293e
00000120: 61bd 263d 3c97 5b3b 03e2 943d 7a76 453e
00000130: 461f a43e dfb9 33be 6c12 bf3d ab87 07bd
00000140: 28c3 153d 641b 03be 9966 40bd 8ea4 253e
00000150: adca 03bc 93cd 7b3e d07c 963d 595d 79be
00000160: 0dc8 9e3e d828 903b 8ba2 993d 98c8 c6bd
00000170: f7dd a33d e475 1bbd 3532 1abe aca7 713d
00000180: c633 64bd d195 83bc f036 3abe c868 68be
00000190: e0f8 8b3d d2b0 763e a493 6ebe 38ca 4e3d
000001a0: 01ce b1bd 4375 cc3d abe3 1b3e 2f68 a03e
000001b0: cf10 e93d a972 91bd 43c0 2fbe c114 dfbd
000001c0: 38b2 713d 4ed2 02bc b5b4 083e 9ce0 18be
000001d0: 575d 2dbe 8af6 6d3d a14f f7bd 7f4e 023e
000001e0: 7749 a23e 0b14 d9bc 260d 55be ab36 84bd
000001f0: 5c72 df3d 0b66 11bc 1cf9 87bd a5ff 90be
00000200: 548a abbd 3eba 45bd 7eb9 6fbd 9595 8b3e
00000210: 569b e43d 0093 31be 5879 5abd 7bb6 123e
00000220: d043 5e3d 44e6 9ebc 76c7 8e3d 8178 7c3e
00000230: 26b4 9f3e 291f bdbd e951 603d bfb3 5cbd
00000240: aa0c 403d e876 3bbe 5b4b ecbc 97ea 3c3e
00000250: e85b d53c a960 773e ba3e b03d d62e 8cbe
00000260: 65ce 013e 3f51 dfbc fcfc 293e bf3a afbd
00000270: 5988 6b3d 3473 c1bd d9ac 33be 2c8a 703d
00000280: 17db 3bbd d0a1 a8bc 4900 15be cb8a 94be
00000290: abfd ac3d 8f99 213e fd26 85be b759 173d
000002a0: 8a48 d5bd e244 d43d 5199 343e ad9e 4e3e
000002b0: 4ef9 ac3d 69b8 0cbe 21a8 74be 5d68 fbbd
000002c0: fee3 893d e534 0bbd 014a 163e 4966 4abe
000002d0: 3f82 1cbe f915 fd3d 6d59 fabd 7054 843e
000002e0: ae82 313e a7d2 78bc 0eb6 7fbe b37f 33bd
000002f0: e7f6 063e 6aa7 193d 9e56 37bd 1ae4 94be
00000300: 23e0 c6bd 0309 1fbd 826c 1fbd 9e65 863e
00000310: d5ea ea3d facf d4bd 1adc fdbd 547b fc3d
00000320: 98fb 563d 98f9 0dbd d9be 4a3e 1246 6e3e
00000330: 659d b73e 814a 37be d12c 9f3d 5c4b 58bd
00000340: 1ea8 4d3d a833 fcbd b521 08bd 891d 293e
00000350: 5c44 43bb d452 6b3e 3791 a73d 6116 8bbe
00000360: 62da bf3d 2784 d3bc 46b8 363e 98a1 c5bd
00000370: c3a3 a13d f901 cabc 3124 42be 305a 6c3d
00000380: 1832 97bd 4247 30bc c8dc fcbd 6aab 57be
00000390: bc48 973d 29ad 2c3e 00b9 65be c70d 043d
000003a0: 5572 24be b943 f13d f891 6c3e 37d2 223e
000003b0: 4b1e d43d cd46 f2bd a2ca 44be cff4 ffbd
000003c0: 1833 913d 7dee 29bd 1dd9 ba3d e128 5abe
000003d0: 769b 07be 46d8 973d 66be 02be af64 ec3d
000003e0: de95 4d3e 191a dfbc 925e 5cbe aa1b d2bd
000003f0: 3942 c23d 9000 d7bb d565 6abd 75e6 81be
-0.08551285 -0.051868144 -0.068805054 0.21141751 0.102611035 -0.17953327 -0.11217374 0.17154884
0.05920215 0.0020859516 0.10248082 0.23407584 0.2488957 -0.14165527 0.06337489 -0.04197093
0.0393882 -0.2551207 -0.042417645 0.19208997 0.035556603 0.2405944 0.26098156 -0.25208065
0.22574718 -0.044366114 0.1317927 -0.12057795 0.050215837 0.037048243 -0.13289872 0.042671558
-0.07311672 -0.03413352 -0.21263863 -0.21987963 0.08429083 0.19231316 -0.32384259 0.0050241407
-0.07521657 0.1391316 0.10207585 0.23044603 0.08418235 -0.11372403 -0.30277476 -0.117392704
0.06822207 -0.039568916 0.11991932 -0.14603321 -0.11087196 0.060546793 -0.13109225 0.13520662
0.21036664 0.0028291005 -0.21690844 -0.20612791 0.089567035 -0.0016806272 -0.043713603 -0.30949205
-0.070166074 -0.045625903 -0.085958384 0.256542 0.105163984 -0.1381371 -0.17635608 0.16517417
0.04070795 0.003350689 0.07269671 0.19283476 0.3205511 -0.17551373 0.093296856 -0.033088367
0.03656307 -0.12803417 -0.046972845 0.16176054 -0.008043927 0.24590139 0.07348025 -0.24352016
0.31012002 0.0043994 0.07501706 -0.09706229 0.08001321 -0.037954226 -0.15058215 0.058997795
-0.055713437 -0.016062649 -0.1818502 -0.22696221 0.068345785 0.24090889 -0.23298508 0.05048582
-0.0868187 0.099833034 0.15223567 0.31329486 0.11380159 -0.07101948 -0.17163186 -0.1089263
0.059007853 -0.007984711 0.13350184 -0.14929432 -0.16930138 0.058096446 -0.12075735 0.12725256
0.31696674 -0.026498815 -0.20805797 -0.064557396 0.10910484 -0.008874427 -0.06639311 -0.2832004
-0.08375993 -0.048273318 -0.05852651 0.2726256 0.111624405 -0.17341232 -0.05333838 0.14327423
0.05426389 -0.019396909 0.06971638 0.24655344 0.3119213 -0.09234459 0.054765616 -0.053882357
0.046887077 -0.18307078 -0.028844526 0.18448864 0.0260448 0.24157967 0.08605714 -0.27379483
0.1267639 -0.02726042 0.16600412 -0.08556127 0.057503078 -0.094458014 -0.17546405 0.05872552
-0.045863237 -0.02058497 -0.1455089 -0.2901214 0.08446821 0.15781234 -0.26006308 0.036950793
-0.10414226 0.10364701 0.1763661 0.20177718 0.084459886 -0.13742222 -0.23892261 -0.12275765
0.06732939 -0.03398599 0.14676668 -0.19765581 -0.1528406 0.123577066 -0.12224088 0.2584567
0.17335007 -0.015186942 -0.24971792 -0.043822955 0.13180123 0.037513174 -0.04476034 -0.29080278
-0.097107194 -0.038826954 -0.03892184 0.26249403 0.11470572 -0.10391231 -0.12395497 0.123282105
0.052486032 -0.03466186 0.19799365 0.23268917 0.3586227 -0.17899515 0.0777222 -0.052806243
0.050209157 -0.1231454 -0.03323527 0.16515173 -0.0029795384 0.22980815 0.081819944 -0.2716551
0.09367825 -0.025819851 0.17843732 -0.09649962 0.07892563 -0.024659144 -0.18959118 0.057703197
-0.073826015 -0.010759177 -0.12346798 -0.21061483 0.0738692 0.1686293 -0.22433853 0.0322397
-0.16059239 0.11780495 0.23102558 0.15900503 0.103573404 -0.118299104 -0.19217923 -0.124978654
0.070898235 -0.041487206 0.09123442 -0.21304657 -0.13242897 0.07414298 -0.12767944 0.11542641
0.20076701 -0.027234124 -0.2152045 -0.10259183 0.09485287 -0.0065613464 -0.05722602 -0.25371137

fc.bias f4 [100]
00000000: 085c 323e db99 323e e756 613e 0737 463e
00000010: 11b3 213d a22f 3e3e c623 433e fa75 133e
00000020: 1fdc 213e 740a ed3c f37d 383e edcb 033e
00000030: ee22 213e 15b8 193e 5dcd 873d 0d1a 2e3e
00000040: 7cd5 0e3e d475 4c3e c4d5 4a3e b810 123e
00000050: abbf 493e a384 123e 3930 d63d 6458 393e
00000060: 81b8 013e f243 433e 5093 313e 96c3 0f3e
00000070: 96bd 293e 28a3 f23d 2d55 4a3e 5829 033e
00000080: a8ae 143e ea7e 1f3e 3dfe a23d 1c62 2d3e
00000090: c26f d23d 30f8 e23d 8efd 033e bc81 f23d
000000a0: 0ab2 063e 2da6 0f3e e671 e93d 6476 e13d
000000b0: 3373 af3d e455 f13d 1dfb fb3d c854 1e3e
000000c0: 2274 283e c8fa 8a3d 6f5e 4a3e 8230 033e
000000d0: 4651 e93d f60d 293e df57 603d 79c2 1c3e
000000e0: 6770 343e d0af 1b3e 9786 ad3d 668d de3d
000000f0: d242 f73d c44e ef3d 9388 203e 1949 263e
00000100: 93ae cb3d 5dc6 d93d caef 123e ff71 c03d
00000110: d5ad 3c3e c920 003e 3277 d43d 50c8 e73d
00000120: 7af3 f33d 6a8c cc3d 0a45 033e 8cc4 043e
00000130: 51db df3d abc5 0e3e 3fad bd3d 1f55 c43d
00000140: 94bf 223e 5cc8 0f3e 3258 113e d16c 073e
00000150: 21a2 103e ee5a 0c3e 0ce8 063e 2a95 1a3e
00000160: 0ed0 f03d d2c9 e33d b810 1f3e d7fc 293e
00000170: 7589 0b3e 12ac 263e c4fe fa3d ce96 1b3e
00000180: 4dee 2d3e b8a6 1a3e 0cb9 eb3d b577 b63d
0.1741792 0.17441504 0.22005807 0.19356929 0.03947741 0.18572858 0.19056615 0.14400473
0.15806626 0.028935649 0.18016796 0.1287076 0.15735981 0.15011628 0.06630967 0.17002125
0.13948625 0.19966823 0.19808108 0.1426419 0.19702022 0.1430841 0.104584165 0.18100125
0.12668039 0.19068888 0.17341352 0.14039454 0.16576228 0.11847526 0.19759054 0.1280874
0.14519751 0.15575758 0.07958648 0.16931957 0.10275222 0.11082494 0.12889692 0.11841151
0.13153854 0.14028235 0.113986775 0.11008909 0.085668944 0.117839605 0.123037554 0.15462029
0.16450551 0.06786114 0.19762586 0.12811473 0.11392455 0.16509232 0.0547713 0.1530856
0.17621003 0.15203786 0.084729366 0.10866813 0.12073292 0.11684945 0.15677099 0.16238822
0.09945407 0.10633538 0.14349285 0.09396743 0.18425687 0.12512507 0.10374297 0.113175035
0.11911674 0.09987719 0.12819305 0.12965602 0.10930503 0.13942592 0.0926156 0.09586548
0.15893394 0.14041275 0.141938 0.13225104 0.14124347 0.13706562 0.13174456 0.15095964
0.11758433 0.111224785 0.15533721 0.16600357 0.13626654 0.16276577 0.12255624 0.15194246
0.16985436 0.1510266 0.11509904 0.08909551
