training_artifacts/modelo_lstm_ohlcv.pth (torch, 483564 bytes, 6 tensors)

lstm.weight_ih_l0 f4 [512, 4]
000000 bd 6d 2d 3d c3 56 14 bd e5 c7 e2 bd 30 91 86 3d
       0.042340983 -0.036215555 -0.11073283 0.06570661
000010 3c 0b a0 3d 61 c6 91 bd 0e 49 f8 bc 19 d9 08 bd
       0.07814643 -0.07117916 -0.030308273 -0.033410165
000020 fb 8b c6 bc b0 6d b4 bd fa 14 eb bc a7 96 13 3e
       -0.02423667 -0.08809984 -0.028696526 0.14412938
000030 3b 68 b7 3d 45 2e 97 3c 0e 76 15 3e 22 c5 b9 3b
       0.08955427 0.01845468 0.14595816 0.005669252
000040 b6 39 da 3d 87 d0 0f 3e 86 bb ca bd 7b a3 54 bc
       0.10655539 0.1404439 -0.098990485 -0.01297843
000050 59 af 51 bd 4d 0b 0b 3e 80 43 13 be 28 02 af 3d
       -0.051192615 0.1357853 -0.14381218 0.08545333
000060 dd fe 23 3d c9 ff f5 bc b7 5f 7c 3d b8 65 ca 3c
       0.04003798 -0.030029194 0.06161472 0.024706706
000070 fc db 30 bb 25 b3 b5 3d d2 e9 53 3d a1 4e 12 bd
       -0.002698659 0.0887206 0.05173666 -0.035719518
000080 4b 85 8e 3d 91 64 e9 3c c8 c9 8c 3c bd 41 c8 3d
       0.06959017 0.028490337 0.01718606 0.097781636
000090 d5 d1 ef 3c 95 81 ec bc 17 81 37 be 30 c8 88 3d
       0.02927486 -0.028870383 -0.17920338 0.06678808
0000a0 31 7f 9b 3d c8 1d 2e 3c 95 1f f1 3c 3a ea 59 39
       0.07592619 0.010627218 0.029434005 0.00020781989
0000b0 c7 86 25 3d da 35 dd 3b e6 57 8a 3d d5 bd 32 3e
       0.040411737 0.0067508044 0.067550465 0.17455228
0000c0 1c f2 8c 3d 2a 4b c9 3b 66 bb 4a bd fb a6 a1 3d
       0.06882116 0.0061429935 -0.049495123 0.07893177
0000d0 97 01 0f 3e 53 da 91 be 59 8c 08 bd d2 b1 48 3d
       0.1396545 -0.2848688 -0.03333697 0.048997708
0000e0 d6 8f 4b 3d df 87 67 3d 8b ea 6b bd 52 fa ee 3c
       0.04969772 0.05652606 -0.057596724 0.029172096
0000f0 d5 e9 b8 bd 3e e7 28 3d 3b 3e 08 bd 1f be bc 3d
       -0.09028975 0.041236155 -0.033262473 0.0921595
000100 73 12 7b 3d 79 e0 91 3e ed 75 84 3d 35 44 fe bc
       0.06129689 0.28491572 0.06467805 -0.031038383
000110 58 a9 a2 3d 37 69 16 3e 25 5f 21 bd 39 e1 0a bd
       0.07942456 0.14688574 -0.039397378 -0.033906195
000120 b1 59 cb 3d 29 a1 43 bd 73 3f 83 3b 35 f4 6f 3d
       0.09929217 -0.047761116 0.0040053665 0.058582503
000130 9b 03 82 3d f4 06 87 be 4b 05 88 3d a6 f0 5f 3b
       0.06348344 -0.26372492 0.066416346 0.0034170537
000140 0b 35 1d 3d a0 5f 9d 3e 5d 2b 05 3d 0e 16 e5 3d
       0.038380664 0.3073702 0.032512058 0.11185847
000150 68 32 ab bc bf a1 c6 3d d9 66 b0 bd f3 dd 95 3a
       -0.020898059 0.09698819 -0.08613367 0.0011433944
000160 9f 1d 88 3d 2e 31 ad 3d 01 3c d6 bd bc 81 bd 3d
       0.06646275 0.08456646 -0.104606636 0.092532605
000170 f5 47 13 bd 15 65 4d 3d 9c a9 1a bd 4a 8e d5 bc
       -0.035957295 0.050145227 -0.03775941 -0.026068825
000180 6f 9c 5a 3d ce 99 05 be 85 6f f7 3c a6 f5 01 3e
       0.053371843 -0.13046953 0.030204544 0.12691364
000190 2d f8 22 3d cc d3 62 3d ac 20 f6 ba c2 aa 4b 3d
       0.03978746 0.055377766 -0.0018778048 0.049723394
0001a0 9f 03 2b 3e 62 64 c8 3d 24 59 22 be de e1 2a bb
       0.167006 0.097847715 -0.15854317 -0.0026074569
0001b0 8f 02 dd 3b e2 34 eb 3d 0e 64 a6 3a b7 99 36 bd
       0.00674469 0.11484696 0.0012694614 -0.044580188
0001c0 9e 6c a4 3d fe 98 9a bd e1 e9 16 3d 82 c1 81 3d
       0.080285296 -0.07548712 0.036844138 0.06335737
0001d0 6d 30 b5 3d 0c 49 75 3d 83 d3 d7 bd f4 2e ae 3c
       0.08847127 0.059884116 -0.105383895 0.021262623
0001e0 30 cd 42 3e 61 90 c3 bd 77 46 5a 3e 1c 43 7b 3d
       0.19023585 -0.095490225 0.21315943 0.061343297
0001f0 f4 6d 42 3c de ec 08 3d 36 d2 3f bd ed 8c ec bc
       0.011867035 0.03342902 -0.046831332 -0.028875792
000200 20 6b 84 3d 12 d0 84 3d c6 92 ee bc f8 a4 48 3d
       0.06465745 0.06484999 -0.029122721 0.04898545
000210 7a b5 b1 3e 0e e3 ea 3d d9 d7 bc 3d 07 99 bc bd
       0.34708768 0.114690885 0.09220857 -0.09208875
000220 41 e0 48 bd c5 c3 3e bd 7f c4 02 3e 56 09 fe 3d
       -0.04904199 -0.04657342 0.1277027 0.124041244
000230 9b 2a f9 3c 17 6a a1 3d 14 a2 ee bc 28 94 03 3e
       0.030415824 0.07881563 -0.02913002 0.12849486
000240 c6 b3 ac 3d 94 7d cd bb 07 4b e1 bc ca 62 7e bc
       0.084327266 -0.0062710736 -0.027501596 -0.015526483
000250 03 8e 06 bc 72 de 96 bd d0 90 7d bd f8 b5 fb 3c
       -0.008212569 -0.07366647 -0.061905682 0.030726418
000260 a6 8c bf bc 5b b6 e9 bd 83 f2 21 bc 12 c9 30 3d
       -0.023382496 -0.11411735 -0.009884479 0.043160506
000270 bf 1f af bd 6d bc ae 3d fb a9 ae bd ca 96 0e bd
       -0.08550977 0.08532033 -0.08528515 -0.034811772
000280 0f 28 27 3e 0c f7 9a 3d 62 81 1a 3e e4 ac 05 3c
       0.16323875 0.07566652 0.15088418 0.008158896
000290 43 1d ca 3d ea 2d ef bd f8 f0 3f 3d 71 0e ce 3d
       0.098688625 -0.11678679 0.046860665 0.10061348
0002a0 85 6b 59 3d 58 d7 b0 3d a0 8e d1 bd 6a 31 26 3d
       0.053081054 0.086348236 -0.10232282 0.04057447
0002b0 3e a8 56 bd 26 3e a3 bd 1a 82 5e 3d 66 19 30 3d
       -0.052406542 -0.07970838 0.054323293 0.04299297
0002c0 88 7b be bc ed fc 0d 3e 85 1f d0 bd ca dd 4d 3d
       -0.023252264 0.13866015 -0.10162262 0.050260343
0002d0 5d 08 d3 3e 2b 8f 43 bd 55 b7 32 3e a8 55 86 bc
       0.41217318 -0.047743957 0.17452748 -0.016398266
0002e0 cd ac d6 3c b3 40 04 3e 24 03 98 bd 95 3e 2a 3d
       0.026205445 0.12915306 -0.07422474 0.04156359
0002f0 ab f0 8f bc c0 d1 19 bd d1 4d d7 bd bc 23 39 3d
       -0.017570814 -0.03755355 -0.10512889 0.045200095
000300 12 15 c1 bd 7a c9 85 bd f4 61 a5 bd 1d 12 cb 3d
       -0.09427847 -0.06532569 -0.08075324 0.09915564
000310 28 a2 ac bd d8 88 7f 3d 0e 1a 43 3c 43 eb e8 3d
       -0.08429366 0.062386364 0.011908067 0.113729976
000320 87 71 36 3d 0a e3 14 be 6d 2d aa 3d bf 4f c8 bd
       0.04454186 -0.14539734 0.083094455 -0.09780835
000330 a8 b9 55 be 41 20 04 bd bc 6a d2 bd d7 cc d9 3d
       -0.20871603 -0.032257322 -0.10274264 0.10634773
000340 91 9d 42 be 50 88 9f be 65 a3 3a 3d 27 a1 5c bd
       -0.1900542 -0.31158686 0.04556598 -0.053864624
000350 5b 79 72 bd b5 6c 0c 3e f2 27 f9 3d 74 1c 2a be
       -0.059197765 0.13713343 0.12165822 -0.16612417
000360 ed 9e 09 be 58 65 e0 bd a6 ac e1 3d a3 01 a5 3d
       -0.13439532 -0.1095683 0.11019258 0.08056953
000370 7c d4 fc 3d 70 57 3d 3e 8d d9 37 be 78 3d a4 be
       0.12345216 0.18490386 -0.17954083 -0.32078147
000380 6b 5a cd 3c fa 02 9e bd 42 8f 4f 3c 87 dc 2b 3c
       0.025067529 -0.077154115 0.012668433 0.01048959
000390 fb b7 14 bd d0 4d 41 bd 26 37 1b bc 14 84 0d 3d
       -0.03630827 -0.04719335 -0.009473598 0.034549788
0003a0 2c c0 47 3e d1 c5 28 3e 52 8d d4 bd 78 d1 39 3d
       0.19506902 0.16481711 -0.10378517 0.04536578
0003b0 4c 82 e4 3d 93 fe 08 3c 12 e5 bc bd d4 04 60 3d
       0.11157665 0.0083614765 -0.09223379 0.054692104
0003c0 28 99 32 bc f5 de e6 bd 38 14 d1 bc 39 a3 42 3c
       -0.010900773 -0.112729944 -0.025522336 0.011879736
0003d0 5a dc 40 bd 34 cc d8 bd 2b d8 2b 3e e6 a6 a3 3c
       -0.047085144 -0.10585824 0.1678168 0.019977044
0003e0 65 d9 15 3e c2 6f 85 3d 0a 27 a1 3d 55 f1 47 3d
       0.1463371 0.06515457 0.07868774 0.048814137
0003f0 7e 05 8c bd 3c f1 44 3d d1 b0 fe bd cb c6 69 bd
       -0.06836985 0.04808162 -0.12436069 -0.05707435

lstm.weight_hh_l0 f4 [512, 128]
000000 ac 8c 97 bd 8a fb 20 bd fc 13 05 be 3f cf 68 3d
       -0.07399878 -0.039302386 -0.12995905 0.05683827
000010 e1 37 d8 bc fe 71 ec bc 18 9c 4c bc 53 c2 63 bc
       -0.026393833 -0.02886295 -0.0124883875 -0.013901311
000020 4b 3e 54 3d c2 01 8d 3e 17 97 7b 3d 5e 69 23 bc
       0.05181722 0.27540404 0.061423387 -0.009973852
000030 cd a8 8a bc 27 cd 49 3c 32 2f ad bd 19 83 91 3d
       -0.016926194 0.012316979 -0.084562674 0.07105083
000040 b7 f4 d0 bd 3a 82 80 3d 85 22 5d bd 95 3a 22 bd
       -0.10202926 0.06274839 -0.053988 -0.03960665
000050 86 45 81 3d 08 03 0f 3e f0 69 5f bc 73 d4 99 bd
       0.06312089 0.13966 -0.013636097 -0.075112246
000060 0b d8 be 3d 03 19 27 bd 5a 20 64 3d f0 7e 05 3d
       0.09318551 -0.040795337 0.055694915 0.03259176
000070 70 99 60 3d 63 5a 06 3e 36 5d 24 be f6 4d 6d 3c
       0.05483383 0.13120417 -0.16051182 0.014483919
000080 c1 e5 a4 bc 8d 2f 34 be 2c 2a d4 bc 23 1e a4 3d
       -0.020129086 -0.17596264 -0.025899015 0.080135606
000090 6b cb 90 3c 57 a5 16 3d 1f 36 03 be bd 7f 34 3d
       0.017675122 0.036778774 -0.12813614 0.044067133
0000a0 e0 f6 1d 3d 3d 40 f3 3c c8 fc a6 bc 90 c4 2b bd
       0.038565516 0.029693717 -0.020384207 -0.041935503
0000b0 7f 39 07 bd 3c 34 86 3b a4 28 f2 3c 4e 55 95 bd
       -0.033013817 0.0040955823 0.029560395 -0.07291661
0000c0 3c 95 52 3c 80 be 88 3b ac 60 af bc 1b 72 03 be
       0.012852963 0.0041731 -0.021408401 -0.12836497
0000d0 d5 4d 3f be 87 80 22 be 7e 85 69 bd 65 28 14 3e
       -0.18682034 -0.15869342 -0.057012074 0.14468534
0000e0 ea 54 ce 3d 2b f4 11 be 4f 87 84 bd 00 1f a0 3c
       0.1007479 -0.14253299 -0.064711206 0.019546032
0000f0 6d 91 fb 3d be cd fe bd 12 5e f7 3d 81 38 41 bd
       0.12283597 -0.12441586 0.12078489 -0.047173027
000100 85 f2 47 bc 57 1d d9 bc b9 60 8d 3d c6 7f 0e 3d
       -0.012203817 -0.026503248 0.06903214 0.034789823
000110 c4 de 45 bd 01 d6 e7 3c 62 d7 d7 3a 59 4d 37 3d
       -0.04830815 0.028300287 0.0016467387 0.0447515
000120 ad 44 46 3d f3 0c 39 3d 06 e2 a9 bc 70 6f d5 3c
       0.048405338 0.045178365 -0.02073766 0.026054114
000130 60 e6 96 bd 30 12 fc bc c6 e1 2c bd 92 43 df 3c
       -0.07368159 -0.030770391 -0.0422075 0.0272539
000140 f2 fd 53 3c 03 41 37 bd 2a d4 1a 3d c9 55 08 be
       0.012938963 -0.044739734 0.03779999 -0.13313974
000150 2b 76 cc bd 2f dc 10 3d e9 43 89 3d 55 7d 52 3d
       -0.09983476 0.035366233 0.06702406 0.051389057
000160 da 9c a7 bd 35 d2 ff bd 91 94 c6 3d 0b bf a5 3c
       -0.08184214 -0.12491266 0.096963055 0.020232698
000170 e2 2d 61 bd 0b 26 02 3c 75 9c 9f bc f3 ab 9e 3d
       -0.054975398 0.00794364 -0.019483784 0.077476405
000180 3c 75 2f 3d 79 3c 40 bc 7f 53 8d 3d 4f 20 66 bd
       0.042836413 -0.011733168 0.06900691 -0.056183156
000190 9e b0 00 3e 2e 39 ba 3d d2 7f 62 3d 0b 68 9d bc
       0.12567374 0.090929374 0.05529768 -0.01921465
0001a0 52 9f ed bc 34 aa 35 bd 47 51 0d be 00 f3 17 bd
       -0.029006634 -0.04435177 -0.13800536 -0.037096977
0001b0 b8 af f6 3d 83 fa 00 bd 36 11 53 3d bd 95 ae 3d
       0.120452344 -0.031488907 0.051530086 0.08524654
0001c0 e2 bc 06 be 38 e9 98 3b 08 5f 35 bd 64 da 6d 3c
       -0.1315799 0.0046664737 -0.044280082 0.0145174
0001d0 47 6a b8 3c 69 c7 d0 3c ce 2d a7 bc c6 cc 97 bc
       0.022511614 0.025485711 -0.020407584 -0.01853026
0001e0 e2 9e 9d 3d 1b e8 6d 3d bb 23 9a 3d b4 81 ab bc
       0.0769632 0.05808268 0.07526346 -0.02093587
0001f0 28 3f ed 3d 3a 39 92 3d e6 7e f5 bc 84 05 88 3e
       0.11584312 0.07139821 -0.029967736 0.26566708
000200 5e 4e 9a bd 8b c2 92 bc c6 86 be bb fb f5 88 bd
       -0.075344786 -0.017915031 -0.005814406 -0.06687542
000210 c0 04 b2 3d 2c 2d 40 bd b0 d9 d6 3d 9a 4f 0b 3d
       0.08692312 -0.04691808 0.10490739 0.03401146
000220 f9 4f 9e 3b bb c7 10 3e 6e cc bb bb 8a 6f 55 bd
       0.004831311 0.14138691 -0.005731157 -0.052108325
000230 2c 1e 7a bd c6 0f af 3d 72 50 90 3d 8d 2c 88 bd
       -0.06106393 0.085479304 0.07046594 -0.066491224
000240 9c 0f 62 be f4 50 78 3d cc 01 01 bc 8b 62 94 bc
       -0.22076267 0.060624078 -0.007873964 -0.018113395
000250 c1 dc df 3c 3e 17 70 3d 84 cb 50 bc e8 a3 62 bd
       0.027326943 0.058615915 -0.012743834 -0.055332094
000260 f0 b4 5d 3d 8b 12 4e bd f2 58 16 3d aa f9 3e 3b
       0.054127634 -0.050310653 0.03670592 0.002914051
000270 fc 2f cb 3d 35 51 5a 3d 94 39 15 3e 1d 4f b1 3d
       0.09921262 0.0533001 0.14572746 0.08657668
000280 de 7b b5 3d a8 cf 53 3d 12 a4 0c bd 38 ac d3 3d
       0.088615164 0.05171171 -0.034336157 0.103355825
000290 91 62 30 3d c3 7a b9 bc 7e 62 e2 3c 15 05 bd 3c
       0.04306275 -0.022641545 0.027634855 0.023073712
0002a0 db f1 e4 bd f7 19 5a 3d b0 68 db 3c 4c 26 d2 3d
       -0.11178943 0.05324742 0.026783317 0.10261211
0002b0 88 39 07 3e b8 41 b2 3c b7 4f b2 3c 32 07 76 bd
       0.1320554 0.021759853 0.021766527 -0.060065456
0002c0 4a 0e c0 3d a7 f0 cc bd 3b f6 23 be dd c2 57 3e
       0.093777254 -0.10006838 -0.16011898 0.21070428
0002d0 86 8f 71 bd ca 68 1d 3c 4f a8 95 3d 34 f9 89 3e
       -0.058974765 0.009607503 0.07307493 0.2694794
0002e0 bc 1d 62 3c b6 a8 63 3d 3a 2d 5f bd 9f 72 69 bc
       0.013801035 0.055580817 -0.05448649 -0.014248519
0002f0 a5 5a 5a bd 92 32 3b bc ed d8 00 3e 7e 2f c6 3c
       -0.0533091 -0.011425631 0.1258275 0.024192568
000300 cf 98 01 bd 66 ec 56 bd 98 f3 47 bd 6d ab 16 3d
       -0.03163987 -0.05247154 -0.048816293 0.036784578
000310 f5 c4 92 3b 18 b1 3c bd ca 5e dc 3c d6 75 94 3d
       0.0044790455 -0.046067327 0.026900668 0.07249038
000320 e0 5d 1c 3e 07 9d e5 bc 65 bf c0 bc 00 0e 82 3d
       0.15270185 -0.028028978 -0.023528764 0.063503265
000330 07 7a 9b 3d 37 cf 07 bc 32 3c b0 3d b2 28 60 3d
       0.07591634 -0.00828915 0.08605231 0.05472631
000340 d7 36 8e bd 72 b4 e5 bb ca bd 48 3d e7 d0 8d bd
       -0.069440536 -0.007010036 0.049009122 -0.069246106
000350 53 e8 a4 bd 8f 9f 86 3e 0b 7b 29 bd 9e 8f 90 3c
       -0.08052125 0.2629361 -0.04137711 0.017646607
000360 75 77 57 3d e2 92 67 3e ec 51 22 3c 8a 37 39 bd
       0.052604157 0.22614625 0.009907227 -0.04521898
000370 36 86 85 bd 31 4a fa 3c 6a 75 92 3a e7 53 6d bd
       -0.06519739 0.030552955 0.0011173908 -0.057941344
000380 3c 7d 43 bd 08 d8 7c bd 3b 5d 3c 3a fa f3 81 3d
       -0.047726855 -0.06172946 0.0007185523 0.06345363
000390 4b 59 1a bd 2c d1 33 bd 5b 06 76 bc 41 dc 31 3c
       -0.037682813 -0.043900654 -0.015016164 0.010855735
0003a0 89 8b d1 3d d5 31 3b bd ec d4 1f 3e ef 78 17 3d
       0.10231692 -0.04570182 0.15608567 0.036980566
0003b0 05 de a4 3d c1 ac 61 3d 36 c0 49 bd c3 fa 1a 3c
       0.08050159 0.05509639 -0.049255572 0.0094592
0003c0 c1 20 8a 3d 04 e8 e7 3d 99 ea 4a bd eb d1 ac bd
       0.067445286 0.1132355 -0.049540136 -0.08438476
0003d0 89 74 88 3d 39 89 0f 3d 6d 27 bd bd 3f ac 5c 3d
       0.06662852 0.035042975 -0.092360355 0.053875204
0003e0 e0 88 99 3d b3 6b e9 3c ba 21 67 3d 91 dd 76 bd
       0.0749681 0.028493738 0.05642865 -0.060269896
0003f0 24 d7 84 bc 51 84 25 bd 77 d8 95 bd 44 44 25 3d
       -0.016215868 -0.04040939 -0.07316678 0.040348306

lstm.bias_ih_l0 f4 [512]
000000 c9 91 c7 3c 2b 21 a5 3c ca d2 41 3d f7 5e b2 3d
       0.024361508 0.020157417 0.047320165 0.08709519
000010 cd 17 00 3e 9b ed e9 3d 21 82 27 bd 03 78 6b 3d
       0.1250908 0.11422273 -0.040895585 0.0574875
000020 b5 06 40 bd bf 57 27 3c e8 10 a1 3d 5a cd 39 3e
       -0.046881396 0.010213791 0.07864553 0.18144742
000030 42 a9 53 bd dd 61 58 3d 0e 66 6a bc 78 c1 e8 bc
       -0.05167509 0.052827705 -0.014306558 -0.028412566
000040 09 1d eb 3c 79 54 d8 3b 99 89 70 3d 9e 06 a2 3c
       0.028700368 0.006601867 0.058724973 0.019778546
000050 93 fc 90 3d 46 c4 45 bc 7f 10 44 3d 71 c8 95 3d
       0.07079425 -0.012070721 0.047867294 0.07313622
000060 66 51 eb 3d 75 19 a5 3d 49 ca e6 3d b2 79 bd 3b
       0.11490135 0.08061496 0.112690516 0.0057823295
000070 69 b7 00 3e 89 db c9 3c b6 85 ec 3d 93 40 5f 3d
       0.12569965 0.024640815 0.11548941 0.054504942
000080 bd 51 07 bd ab f2 0a bd 00 78 c1 3c ad b9 17 3e
       -0.033036936 -0.033922832 0.02361679 0.14816923
000090 3d d4 3e bd 11 e6 65 3c 2d 0b b8 3d 75 19 46 3c
       -0.046589125 0.014031903 0.089865066 0.01209103
0000a0 09 3c d8 3d 98 8f 1b 3d 76 16 55 bc 39 71 62 3d
       0.10558326 0.03797874 -0.013005843 0.05528376
0000b0 3d 87 21 3e 6f ca b2 3c e6 0b a2 3d f4 32 b4 3d
       0.15774246 0.021825043 0.07912426 0.08798781
0000c0 cb 84 02 3e a7 1c e0 bc e6 a1 29 3d 5c a7 01 3e
       0.12745969 -0.027357413 0.041414164 0.12661499
0000d0 af cc e4 3d 1d 21 ef 3d f1 1c 11 3e 1e 2e 7b 3d
       0.11171853 0.11676238 0.14171197 0.061323278
0000e0 8f b1 bd 3d 5b 60 f3 3d e0 fc 7e bd 59 8b 96 3c
       0.09262382 0.11883613 -0.06225288 0.018376993
0000f0 a0 72 ec 3d 25 ad a8 bd ef 1c 03 3e 87 9f 1d bd
       0.115453005 -0.0823615 0.12804006 -0.038482215
000100 e8 cb 94 bc 06 6c 17 3e 58 ce ff 3d ac 22 2f 3d
       -0.018163636 0.14787301 0.12490529 0.042757675
000110 d3 75 c8 3d cf c2 d2 3d 85 ea 61 3d ec 37 4d 3d
       0.09788098 0.10291063 0.055155296 0.05010216
000120 b9 58 bd 3d 25 af 15 bd 90 2b 4b bd c9 3e 82 bd
       0.09245438 -0.036543984 -0.04960209 -0.063596316
000130 1d c0 34 3d 34 21 f5 bc 46 2b 68 3d b8 4f 2c bd
       0.044128526 -0.029923059 0.056681894 -0.042068213
000140 5f 35 d7 3d bd cb 30 bd f3 91 9f bc 11 1f c1 bc
       0.105082266 -0.04316305 -0.019478774 -0.023574384
000150 9a cc 19 3e f0 85 ea 3d ca 11 8c 3d fb 4a 3c bd
       0.15019456 0.11451328 0.068393305 -0.045969944
000160 48 a4 da 3d 0f 24 a5 3d 55 62 c1 3d e0 67 ea 3d
       0.106758654 0.08063518 0.094425835 0.11445594
000170 7e 73 1a 3d 1f d7 b7 3d 4c c0 a2 3d 19 5e b7 3d
       0.0377078 0.08976578 0.07946834 0.089534946
000180 5c 4c 08 b9 39 71 12 bb cf 17 33 3c 84 e2 29 bd
       -0.00012998417 -0.0022345318 0.010930969 -0.041475788
000190 5a ea b0 bc 53 c0 48 bd 11 16 0f 3e b4 05 10 bc
       -0.021596123 -0.04901154 0.13973261 -0.008790422
0001a0 4a 12 d5 3d 1e 52 94 3d 5a 24 01 3e 83 ed ae 3c
       0.10403879 0.07242225 0.12611523 0.021353489
0001b0 64 a7 3a bb 69 d6 23 bd c0 75 57 bc 2e 29 50 bd
       -0.002848112 -0.0399994 -0.013150632 -0.050820522
0001c0 ea 9e 57 bc 61 b7 6d 3d 3d 56 af 3d a5 be c8 3d
       -0.013160447 0.058036212 0.085613705 0.098019876
0001d0 23 92 bd 3d f5 f7 31 3d 9c de d5 3c 3a 66 a8 bd
       0.09256389 0.04344936 0.026107125 -0.08222623
0001e0 81 8b ab 3c c2 4e 89 3c ea d8 5d 3d c7 fe 08 3e
       0.020940544 0.016761187 0.054161943 0.1337844
0001f0 86 b4 3f 3c 70 73 7e 3d a5 c8 90 3d 40 3f c2 bd
       0.011700755 0.06212181 0.0706952 -0.0948472
000200 6a 15 31 bd 3c 3e 0b bd 0f a4 aa 3d 46 19 e0 bc
       -0.043233313 -0.0339949 0.08332073 -0.027355801
000210 ac 20 66 3d 76 59 6d 3d 20 ea 2d bc b6 40 48 3c
       0.056183502 0.057946645 -0.010614902 0.01222246
000220 e8 72 53 3d 90 72 af bc a8 67 8b bd de b0 ef bb
       0.051623255 -0.021416932 -0.0680688 -0.0073147854
000230 d8 54 af bc ee 8a 5e 3d 4d 82 d1 3d e4 ec d7 bc
       -0.021402761 0.054331712 0.10229931 -0.026358075
000240 c7 10 20 3e 38 80 b7 3c cd 42 b6 3d 47 57 ec bc
       0.156314 0.022400007 0.0889946 -0.02885021
000250 d2 2c 17 3e 1a f8 54 3d f3 6b 2f 3d 7a c4 ab 3d
       0.14763191 0.05199442 0.042827558 0.08387084
000260 23 e7 0c 3e ee 25 80 3d 97 90 52 bc 49 11 7e 3d
       0.13760047 0.062572345 -0.012851856 0.062028203
000270 ba ec 5b bc bb 32 07 3e bc e3 12 3b 76 cb ec 3c
       -0.013423139 0.13202946 0.0022413572 0.028905611
000280 38 0c e0 bc 10 92 ee 3d 5a 75 44 bd 9c e2 38 3a
       -0.027349576 0.11648953 -0.047963478 0.00070528104
000290 81 dc bf 3d 7f eb 3d bd 70 31 1b bd 75 43 af 3d
       0.0936823 -0.046367165 -0.037888944 0.08557788
0002a0 2d 86 78 3d e4 d2 41 3d ae 1a 51 bd 31 01 79 3d
       0.060674835 0.04732026 -0.051050834 0.06079215
0002b0 74 dd cd 3d 4c bf 28 3e 14 bb 9e 3d 3a f9 95 3d
       0.100520045 0.16479224 0.07750526 0.07322927
0002c0 7a 6a a1 bc 7b 10 84 3d a1 ff 64 3b 22 16 92 3d
       -0.019704092 0.06448456 0.0034942406 0.07133128
0002d0 fa a6 a6 3d 9e 7f ac 3d 11 1d 1d 3d 91 e3 2c 3d
       0.08137317 0.084227785 0.038357798 0.04220921
0002e0 44 4d b8 3c 79 dc 97 3d 13 ea 02 3d 98 35 35 3d
       0.02249778 0.07415099 0.03196151 0.044240564
0002f0 39 70 6e 3d c8 77 9a bc 0b e9 2a 3d 3b 53 02 3e
       0.058212493 -0.018855944 0.041726153 0.12727062
000300 6a 78 f9 bc 16 ca 04 3c f6 d0 fb 3c 51 4d d4 3d
       -0.030452926 0.008104822 0.030739289 0.103663094
000310 d8 14 0c 3e 97 ff 87 3c 35 33 9f 3d f3 3f 8c 3d
       0.13679826 0.016601367 0.07773439 0.06848135
000320 97 80 49 3d c9 40 9a 3d 0f be 0a 3e 88 6f 85 3d
       0.0491949 0.07531888 0.13549064 0.065154135
000330 e7 57 e6 3c 6c f1 ee 3c 13 db 83 3d 3a 0e d5 3d
       0.028118087 0.029167853 0.064382695 0.10403104
000340 2a f7 4b 3d 0c ea 46 3c cf 60 59 3d ba 60 7e 3d
       0.04979626 0.012140762 0.05307084 0.062103964
000350 ce 8c ab 3d 26 d7 05 3e 29 2e a8 3d 37 1d 95 3d
       0.08376466 0.13070354 0.08211929 0.07280963
000360 75 ab 9a 3d ef 66 f2 3c 19 99 28 3e 77 68 2e 3b
       0.07552234 0.029590098 0.16464652 0.002661256
000370 83 fa ee 3d 37 b4 02 bd a5 1c 0d 3e 33 4c de 3c
       0.11668875 -0.031910148 0.13780458 0.027135944
000380 5f 98 c2 3c 8d be 04 3d 4f cc 8a 3d 9d 3c 84 3d
       0.023754297 0.032408286 0.0677725 0.064568736
000390 40 47 55 3d 3d d9 e2 3d 61 b2 83 3b e7 7d 79 3d
       0.052069902 0.11076591 0.004019067 0.060911085
0003a0 7d 29 d5 3d c7 88 44 bd 69 fe 5b 3d 87 88 97 3d
       0.10408304 -0.047982004 0.05370942 0.073990874
0003b0 e6 b1 f8 3d 95 7c b7 3d b0 26 ba 3d 53 24 fc 3d
       0.121433064 0.08959309 0.0908941 0.12311616
0003c0 a5 d3 2d 3d ab 3f 0d 3c 89 65 a4 3d 3c 92 20 3e
       0.042438168 0.008621137 0.08027179 0.15680784
0003d0 a4 60 d9 3d 65 cb d0 3d a9 bb 1b 3d 2a 2f f8 3d
       0.10614136 0.101950444 0.038020764 0.12118371
0003e0 fa 56 1a bd 48 3d 8a bd e4 46 2e bc 29 8e b3 3d
       -0.037680604 -0.0674997 -0.010637019 0.08767349
0003f0 48 4e 83 3d c4 57 03 3e 6d 03 32 bc 2a 33 04 bc
       0.06411415 0.12826449 -0.010865075 -0.008068839

lstm.bias_hh_l0 f4 [512]
000000 61 79 a0 3d f0 42 0e 3d 72 7d 3f bc 89 ce 45 3e
       0.07835651 0.034731805 -0.011687623 0.19317068
000010 0b cf f3 bb 4b f0 09 3e e1 d5 12 bd e1 af d9 3d
       -0.007440453 0.1347057 -0.035848502 0.10629249
000020 e4 57 8e bc bb e5 ae 3d df 24 58 bd b2 f2 56 3d
       -0.017375894 0.08539911 -0.052769538 0.052477546
000030 aa f3 24 bd 0a 09 d0 3d 12 ca 0a 3e df d7 99 3d
       -0.04027144 0.10157974 0.13553646 0.07511877
000040 88 8f 88 3b af 23 76 3d bd 6a 07 3d bd ad 87 bc
       0.004167501 0.060092624 0.033060778 -0.016562337
000050 fe f8 4f 3d bf 62 a0 3d 59 62 9b bc 4f ea c4 3d
       0.050774567 0.07831334 -0.018967794 0.09615003
000060 ce 2c 7c 3c 45 c0 30 3d 29 ae 04 3e 29 70 eb 3d
       0.015391542 0.043152113 0.12957062 0.11496002
000070 5d 47 08 bd da af 5e bc a5 1e a7 3d fa 86 f0 3c
       -0.033271182 -0.013591731 0.08160142 0.029361237
000080 5b 2f 37 bb 77 8d 49 bb 25 48 9e 3d c7 56 ae 3d
       -0.002795181 -0.0030754486 0.07728604 0.08512645
000090 fe 8f c4 3c ee 45 15 3d af d3 53 bc 50 f8 39 3d
       0.023994442 0.036443643 -0.012928887 0.045402825
0000a0 ff e7 35 3e d9 f4 5f bc 66 57 98 3d d1 be 19 bc
       0.1776428 -0.013669216 0.07438545 -0.009383873
0000b0 83 85 0b 3e 20 e1 a7 3a 16 8a dd 3d 56 4f 30 3d
       0.1362515 0.0012808181 0.108173534 0.04304441
0000c0 86 0d cb 3d e6 38 19 3d 2f 18 dc 38 40 82 c8 3c
       0.09914689 0.03740778 0.00010494922 0.02447617
0000d0 15 2b 2e 3d bd 8d 9a bc 38 f7 21 3e a0 ba 23 3d
       0.042521555 -0.018866414 0.15816963 0.0399729
0000e0 6f ac 5e bd 74 ad 5b 3d 24 16 03 bd 4a ed d1 3d
       -0.054363664 0.053632215 -0.032003537 0.102503374
0000f0 7a 75 22 3e 3f e7 ad bd d7 d4 57 3d e7 5b dc 3d
       0.15865126 -0.08491372 0.052693214 0.107597165
000100 7a ff 12 3d b3 5a 9c 3c 20 6b e9 3b 9c 22 98 3d
       0.035888173 0.019086218 0.007123366 0.07428476
000110 43 6e 19 3e 90 30 eb 3d a9 c5 c4 3c 7f 70 5e bd
       0.14983468 0.11483872 0.024020033 -0.054306503
000120 0f 35 c0 3c 93 22 96 3d 48 e7 b0 3d f0 b1 15 bc
       0.0234628 0.07330813 0.086378634 -0.009136662
000130 9b a4 26 bd b8 de d5 3d 38 dd 53 3d c7 bf b1 3d
       -0.040684324 0.10442871 0.051724643 0.08679157
000140 5b 30 a7 3d b4 73 6e 3d 9a bc 07 3d 36 00 70 3d
       0.0816352 0.05821581 0.03313885 0.05859395
000150 20 5a 88 3d 84 f1 19 3e 42 08 dc 3d 3f 10 fe 3d
       0.06657815 0.15033537 0.107437626 0.124054424
000160 35 95 08 3e 6d 2e 04 3d ad 1a 26 bd 4f 48 f9 3d
       0.13338168 0.032270838 -0.040552784 0.12171995
000170 09 42 41 bc e0 02 74 3d 22 0d aa 3c f0 21 6f bc
       -0.011795529 0.059573054 0.020758215 -0.014595494
000180 64 bf 44 bc 47 58 26 3d 13 a4 04 3c b2 02 c5 3c
       -0.012008522 0.04061153 0.008095759 0.024049137
000190 8f 9c 50 bd cf c8 4d bd 72 87 1b 39 85 f0 98 bc
       -0.050930556 -0.050240334 0.00014832409 -0.018669376
0001a0 79 1b 48 3d 5e a1 43 bb 61 f1 cc 3d 60 68 77 3d
       0.048854325 -0.002985082 0.10006977 0.060402274
0001b0 1d 84 be 3d f8 a4 50 bc 98 d0 5e bd c8 95 d5 3c
       0.09302542 -0.012734644 -0.05439815 0.026072398
0001c0 8e 70 5e ba 6b eb f1 3d d7 03 5c 3d df 90 1c 3e
       -0.00084854 0.118124805 0.0537146 0.15289639
0001d0 6d 93 df bc e2 7a ec bc 5c c9 bb 3d 77 dd b1 3c
       -0.027291978 -0.028867189 0.09169266 0.021712048
0001e0 55 bb 42 3d 49 a7 d6 3d be ff d5 3d c4 9c a0 bc
       0.047541935 0.10481126 0.104491696 -0.019606002
0001f0 29 46 64 bd 2a 50 8f 3d 6e 7a 55 3d 3c 59 82 3d
       -0.055730972 0.06997712 0.05211871 0.06364676
000200 0c ea 57 bd 72 04 db 3d d7 ff ee 3d ad a3 04 3e
       -0.05271344 0.10694207 0.11669891 0.12953062
000210 f4 16 86 bd 84 86 7d 3d 9f 88 0f bd e2 2c e9 3d
       -0.06547347 0.061895862 -0.0350424 0.11385514
000220 44 8d 7c 3d 52 76 cd 3c 46 0c c8 3d c6 98 31 3d
       0.06165816 0.025080834 0.09767966 0.043358587
000230 4d b5 2c bd af 5f f0 bc 51 4b 88 bc c4 23 53 3d
       -0.04216509 -0.0293425 -0.016637476 0.05154778
000240 df 0b eb 3d b6 47 49 3d 20 da 9a 3d 73 69 b4 3c
       0.114768736 0.049140655 0.07561135 0.022022938
000250 09 f5 95 3c 0f 78 ce bc fb 9a 40 bd c2 83 da bb
       0.018305318 -0.025203733 -0.0470228 -0.006668539
000260 56 31 91 3c c1 04 22 3d 4a 71 c1 3d 8b 89 a4 3c
       0.01772372 0.039555315 0.09445436 0.020085117
000270 64 5c 3c 3b 7b 5a 76 3d dd 9a 30 bd 14 0a 51 bc
       0.0028741593 0.060144883 -0.04311644 -0.0127587505
000280 9c 45 fd 3c 7e 98 8d 3c 7d 0a ac 3c 7c 0e a5 3d
       0.030916981 0.017284628 0.021001095 0.08059403
000290 58 e6 ba 3d 98 75 ec 3d 2e 62 48 3d d1 76 83 3d
       0.09125966 0.11545867 0.048921756 0.06419147
0002a0 69 09 d4 3d a2 f9 27 3d 5a ee d2 3d 20 09 cf 3d
       0.10353357 0.041009553 0.10299368 0.10109162
0002b0 be cc 23 3d 98 f8 91 3d 50 ff 00 3b 13 94 ef 3c
       0.03999018 0.071274936 0.0019683428 0.029245412
0002c0 de b5 1e 3d 53 90 06 3d cd 8c fe 3c 18 22 46 3d
       0.03874766 0.032852482 0.031072998 0.048372358
0002d0 b0 37 1f 3e aa e5 39 3a 69 00 d8 3d 60 5e b7 bc
       0.15548587 0.00070914126 0.10546953 -0.022383869
0002e0 29 68 b5 3d 7e d3 15 bc 8a 6c 09 3e 07 ac 07 3e
       0.088577576 -0.009144662 0.1342031 0.13249217
0002f0 81 45 fa bc 4c 00 a3 3d 32 46 bf 3d 12 bb 38 3d
       -0.03055072 0.07959041 0.093395606 0.04510028
000300 83 4e f6 3d 9b 27 55 bb e3 09 d6 3d 29 73 c1 bc
       0.12026694 -0.0032524827 0.104511045 -0.023614483
000310 ce 59 77 bc bd a0 df 3c 74 c1 3d 3e 53 d4 1e 3d
       -0.015097095 0.027298326 0.18530828 0.038776707
000320 2c c8 06 3d 0b 64 80 3d a4 19 02 3e 99 39 01 3e
       0.032905743 0.06269082 0.12705094 0.12619628
000330 6b 23 6f 3d b2 4d 7a b9 5b 62 d8 3d 0c c0 77 3d
       0.058383387 -0.00023870802 0.10565635 0.060485885
000340 40 5d 86 3d 1f dc e3 bc 2f cb 33 bc c8 c4 d6 3d
       0.06560755 -0.027814923 -0.010973736 0.10486752
000350 8b 5d 06 3e d4 24 36 3c 40 57 ff 3d 78 df f8 3d
       0.13121621 0.011117179 0.124678135 0.12151998
000360 a0 59 ec 3c bc 95 3b bd 9c a8 b1 3d e6 b1 af 3d
       0.02885133 -0.045797095 0.08674738 0.08578853
000370 5c 41 39 3d 11 33 f2 bc 7f 18 d3 3d ca 9d 00 3e
       0.045228347 -0.029565366 0.10307407 0.12560192
000380 94 21 77 3b 59 0e 7d 3d e7 d4 9e 3d 1f f8 4a 3d
       0.0037709223 0.06178126 0.07755452 0.049553033
000390 f6 77 57 3b 9a 64 0d 3d 64 bc fe 3d b3 bb 7f 3d
       0.0032877899 0.03451977 0.124382764 0.062434863
0003a0 d9 42 19 3c cc 8b cf ba 88 57 04 3e 27 71 21 bd
       0.009354317 -0.0015834509 0.12924016 -0.03941455
0003b0 4b 46 77 3d bf f0 df 3c 63 fa 0a 3c 94 6d e8 3c
       0.06036977 0.027336476 0.008482548 0.028372563
0003c0 75 40 ea 3d af 17 7c 3d 9b d2 00 3e 28 e6 04 b8
       0.114380755 0.061546024 0.1258034 -3.1685602e-05
0003d0 4e 91 ab 3d 65 ca 4c bd 9a 33 ca 3d 66 14 21 3e
       0.08377324 -0.049997706 0.098731235 0.15730438
0003e0 ea a1 4c 3d 3f ba 91 3d ff c6 dd 3d f2 0c 06 3e
       0.0499591 0.07115602 0.10828971 0.13090876
0003f0 ba cf 50 3d 5a 0e 01 3e f4 85 0e 3c 11 f0 e0 3c
       0.050979353 0.12603131 0.008698929 0.027458223

fc.weight f4 [400, 128]
000000 eb 5c 09 3e e2 3c d0 3d ce 33 0c 3e 95 a5 4a 3d
       0.13414352 0.101678625 0.13691637 0.049474318
000010 1b c5 35 3e a9 78 bd 3e d4 bb 4c be fa 58 d9 bd
       0.17750971 0.3700612 -0.19993526 -0.10612674
000020 52 13 ad 3b 9e bb a9 be 62 6b 15 3e aa 54 fe 3d
       0.005281844 -0.33150953 0.14591745 0.12418492
000030 fe f3 d2 bd 72 42 8d 3d a4 e5 65 3e b2 34 a6 3d
       -0.10300444 0.06897439 0.22450882 0.081155196
000040 1e ca 17 3e 92 50 a4 bd 4f 19 15 3c 4a eb f1 bd
       0.14823195 -0.0802318 0.009100272 -0.11812456
000050 3a 26 5a bc 4a f4 d8 bc ac 44 9f 3d 3c 7b 0b be
       -0.013314778 -0.026483674 0.0777677 -0.13621229
000060 a8 32 0e 3e 48 ff 1e bc 47 f5 99 bd 1a ec eb 3c
       0.13886511 -0.0097044185 -0.07517486 0.028799105
000070 5a 9a a2 be 2f 74 10 3e 32 ea 8a be 70 c5 bd bd
       -0.31758386 0.1410682 -0.27131802 -0.09266174
000080 ac ae 56 bd 7b c7 c4 bd 03 4f be be f3 5f 85 3d
       -0.052412674 -0.096083604 -0.37169656 0.065124415
000090 6d e9 47 3e db ab ed 3d 40 d3 10 bf 5e 02 a2 3e
       0.19522639 0.116050445 -0.5657234 0.3164243
0000a0 58 0a 0d be 89 27 64 bb 5a f1 78 3d 45 05 e9 bd
       -0.13773477 -0.0034813604 0.060777046 -0.11377958
0000b0 07 51 d7 bd bd 60 c2 3d 39 23 c0 3d d8 9c c2 3d
       -0.105135016 0.094911076 0.09381718 0.09502572
0000c0 f9 84 85 be 6f 3d 79 be d0 1f ee bd 6c db 58 3e
       -0.26078013 -0.24339841 -0.116271615 0.21177453
0000d0 58 4b 7a be 34 1d 4a bd e8 83 b8 bd 0b a9 d3 bd
       -0.24442804 -0.049344257 -0.09009534 -0.10334977
0000e0 23 1a 9e 3b 83 75 2a 3e 4d b1 81 3e 04 12 a0 bd
       0.004824893 0.1664639 0.25330582 -0.07815936
0000f0 88 c4 0a 3e 2c 5f c8 bc ba 34 7d bd 70 00 19 3c
       0.13551533 -0.024459444 -0.061817862 0.009338483
000100 93 30 a9 3d 40 77 a7 3d 08 9c 9c 3e 05 b8 94 3e
       0.08261218 0.08177042 0.30587792 0.29046646
000110 1b 80 a2 be 17 6b da bd 95 7d 93 3e f2 2d a0 bd
       -0.31738362 -0.10664957 0.2880675 -0.078212634
000120 83 c0 fc bc a1 8e 87 bc 53 1f 5c be f4 3c 14 be
       -0.030853515 -0.016547503 -0.21496324 -0.14476377
000130 d8 06 65 bd 45 2d 13 be 11 0a 17 bd 52 0b 66 be
       -0.05591473 -0.14372738 -0.036874834 -0.22465256
000140 06 07 31 be 39 ac 82 3d fb 28 ad 3d 7f 7f bc bd
       -0.17287835 0.06380505 0.08455082 -0.092040055
000150 76 07 f3 ba f7 a6 5b 3e 30 da 26 3e ce f8 9f bc
       -0.0018541652 0.21450411 0.1629417 -0.019527819
000160 2a c2 f2 3d b4 8b df bc d0 61 4a be 11 e2 4c be
       0.1185344 -0.027288295 -0.19763875 -0.20008112
000170 3c 70 73 be 07 d6 69 be 4c 60 7a 3e 73 5b 86 3e
       -0.23773283 -0.22835551 0.24450797 0.26241645
000180 f5 ec 80 3e a2 b4 0d 3e bf 76 74 3e ca a1 0c be
       0.25180784 0.13838437 0.23873423 -0.13733593
000190 f6 d4 f4 3c e5 e6 04 be a3 a4 71 bb 19 ab 39 3e
       0.029886704 -0.12978704 -0.0036871813 0.18131675
0001a0 0e 8c f3 bd 50 c5 3e 3e 5e ca 62 3d 90 39 e8 3d
       -0.11891948 0.18629956 0.055368774 0.11339104
0001b0 0f b4 98 bd b7 84 9f 3d 0d 1d 1c 3e e7 9d fd 3d
       -0.074562185 0.07788985 0.15245457 0.12383633
0001c0 6a 6d d9 bd 91 d6 be bc 4f 07 7d 3c bd 43 bb be
       -0.10616572 -0.023295673 0.015443637 -0.36575118
0001d0 28 3b 4c 3e a0 8d c9 3d ae f5 67 3e 14 1b 11 3c
       0.19944441 0.09841466 0.22652313 0.008856554
0001e0 80 6b 47 3e 7f 13 7e 3d 6a d8 98 3d cd 31 c0 3e
       0.19474602 0.06203031 0.07463153 0.37537995
0001f0 da e8 11 3e 07 fc c5 be a0 d6 af 3c 33 6a 3f bd
       0.14248982 -0.38668844 0.021464646 -0.04673214
000200 a2 c8 92 bd d8 b5 d1 bb 9b d5 6b bd 97 dc 75 bd
       -0.07167174 -0.0063998513 -0.057576757 -0.060024824
000210 46 83 d9 bc 87 b7 0a bd 5e 6b 27 3e 8b 6e 06 be
       -0.026551854 -0.03386643 0.16349551 -0.13128106
000220 d6 c4 aa 3c 81 06 29 3e c6 ed 4e 3d b2 00 91 bd
       0.020845812 0.16506387 0.050519727 -0.07080211
000230 71 fa 40 bd fc af 9b 3d 7c 86 18 be 69 61 c1 bd
       -0.04711384 0.07601926 -0.14895052 -0.09442408
000240 6a 63 81 bd c7 54 4b be bb c3 07 be 96 ff d1 3d
       -0.0631779 -0.19856559 -0.13258259 0.10253827
000250 48 ab 23 be e4 1a 3e 3d b1 97 28 3e 15 a0 78 bd
       -0.15983307 0.046412364 0.16464116 -0.06069954
000260 b6 cc 18 be 7a bd b1 3d 9e bb 60 bd 5c be ac 3c
       -0.14921841 0.08678718 -0.054866426 0.021086864
000270 a0 c5 51 be db 1e db 3d 14 a1 57 bb 5b 6b da bd
       -0.20485544 0.106992446 -0.0032902407 -0.10665008
000280 d9 57 36 be 0f dc 03 be 97 50 ba 3e ad 87 91 3d
       -0.17806949 -0.12876914 0.3638961 0.07105956
000290 06 75 01 be 51 e5 5e 3d af fa 40 3e 2a f3 b4 bd
       -0.12642297 0.054417912 0.18845628 -0.08835442
0002a0 17 dc a5 bd 6e f0 bf 3c 98 bc 17 3e a2 d5 66 3c
       -0.080986194 0.023430075 0.14818037 0.01408902
0002b0 66 6b 3d bd b6 80 7b bd 93 11 b4 3d 78 e5 14 3c
       -0.046245 -0.061402045 0.087924145 0.009087913
0002c0 04 63 03 be 05 f8 49 bd 8c f9 2c be b7 7b 02 3e
       -0.1283074 -0.049308795 -0.1689207 0.12742506
0002d0 86 d3 43 be b2 5c 3c 3e 1a 97 31 bd f1 7a bb be
       -0.19123659 0.18394735 -0.043356992 -0.36617234
0002e0 28 c9 52 bc 1c af ad 3c 3c d8 2d be fb 13 ac bd
       -0.012865342 0.021201663 -0.16977018 -0.084022485
0002f0 3f de 19 be 58 95 69 bd a6 ac 47 3e 6e db 42 bd
       -0.15026186 -0.05702719 0.19499454 -0.047572546
000300 bd bf 20 3e 67 0f e4 bd 81 aa 17 3e 07 94 c6 bd
       0.15698142 -0.1113575 0.14811136 -0.09696203
000310 9e 02 aa 3d 87 fc 14 3d 5a 8f 39 3d a7 af 18 3d
       0.083012804 0.03637364 0.045302726 0.03727689
000320 74 eb df 3d 06 f0 f5 3d ef 44 67 be 96 f0 24 be
       0.10933581 0.120086715 -0.2258489 -0.16107401
000330 58 6e 82 bd 08 f0 61 bd b5 4a 29 3e 1b fc 15 3e
       -0.06368703 -0.055160552 0.16532405 0.14646952
000340 76 01 c6 bc 89 f9 7e bc a3 f9 ae 3d 4d 2f ef bd
       -0.024170619 -0.0155624235 0.08543708 -0.11678944
000350 38 08 44 be 0e cf 80 bd 00 54 4e 3d 52 87 f5 bd
       -0.1914376 -0.062894925 0.050373077 -0.11988701
000360 2f 9b 00 3e 90 1e 39 bd 7e b5 e4 bd fd 29 d3 bd
       0.12559198 -0.045195162 -0.111674294 -0.10310743
000370 b1 23 a9 bd 3a ae 41 be 32 96 47 3e 9e 1a 1c be
       -0.08258761 -0.18914118 0.19490889 -0.15244529
000380 0e 9b e9 3b fa 5e 81 bd 22 12 f9 bd 07 5d 7f bc
       0.0071290797 -0.063169435 -0.12161662 -0.015586144
000390 02 e3 b4 3d 80 43 33 be cf 12 8c be b9 64 6b ba
       0.08832361 -0.17506218 -0.273581 -0.00089795474
0003a0 46 e8 af bd 8b a9 c7 3d 10 52 d0 3d 36 3d 2a 3e
       -0.085892245 0.09749135 0.10171902 0.16624913
0003b0 7c 36 54 3e 7e 3a e3 3d 93 9e f4 3d dd 95 65 3d
       0.20723909 0.11095141 0.11944308 0.056051124
0003c0 af 6b dd 3d 0b 1e 51 bc f3 10 04 3e 8f 08 69 3d
       0.10811555 -0.01276351 0.1289709 0.056892928
0003d0 6a 46 ba bd a4 53 96 3d af 06 71 3d f3 8e 37 3d
       -0.09095462 0.07340172 0.058844265 0.04481406
0003e0 12 49 8d 3c c5 85 ff bc 10 73 ab 3c b5 2b 57 bd
       0.017246757 -0.031191716 0.02092889 -0.052531917
0003f0 53 81 d4 3a a1 83 23 3c 9e 77 58 bd bf 4c e8 3d
       0.0016212858 0.009980113 -0.05284845 0.11342763

fc.bias f4 [400]
000000 4c dc 0d bd cd 74 11 3d c2 85 e6 bd 5f 8b 02 3d
       -0.03463392 0.03551178 -0.11255981 0.031871196
000010 57 39 bc bc 29 7a 82 bc 39 37 35 bd 7e d3 17 3c
       -0.02297656 -0.015927391 -0.044242118 0.009266732
000020 66 8c 97 bc 29 ef 04 3d 93 00 1d 3c fe 55 de bc
       -0.018499564 0.032454643 0.009582656 -0.027140614
000030 99 36 86 3d 8b c5 cc 3c c8 29 42 be 28 8e b2 3c
       0.065533824 0.02499654 -0.18961251 0.021796301
000040 8d d0 f7 3c 17 08 9e 3d 61 b9 e2 bd 28 f9 57 3d
       0.030250812 0.07716387 -0.110705145 0.05272785
000050 7e 4e 86 3d 44 22 e6 3d d0 b9 43 bd ee f8 01 bd
       0.0655794 0.112370044 -0.047784626 -0.03173154
000060 2c a3 ce 3b 96 33 54 3d 1b e0 3d bd 04 57 56 3c
       0.0063060727 0.05180701 -0.0463563 0.01308227
000070 4a ad 14 bd c2 d3 10 3c a2 b0 4c bd 99 d4 3a 3d
       -0.036298074 0.0088395495 -0.049973138 0.045612905
000080 ca fe ce 3c 2e c2 d6 bc 64 7c 4f bd 02 fd ce 3d
       0.025267977 -0.026215639 -0.050655738 0.10106851
000090 f7 11 f8 3c 8e ef 9a 3d 7e dc 17 be fb a1 d3 3d
       0.030282004 0.07565223 -0.14830205 0.1033363
0000a0 32 58 e6 bd 20 7b 87 3b 7a ad 53 bd 24 3e 6f bc
       -0.11247291 0.0041345507 -0.051679112 -0.014602218
0000b0 b3 81 32 bd 8a 62 1d 3b 0c 7a 94 bd 98 62 65 3d
       -0.043580722 0.0024015033 -0.07249841 0.05600223
0000c0 3c b4 0d 3d ed 70 cd 3d 75 4f d0 bd 8e 4c df 3d
       0.034595713 0.100313045 -0.10171405 0.109032735
0000d0 68 0c d8 3b e1 ca c8 3d 73 2c 3d 3c 8b 20 80 3d
       0.006593276 0.09804321 0.011546242 0.06256207
0000e0 8b ca d6 bc 10 e4 89 3c 9e 13 93 bd 5f a7 0b 3e
       -0.026219627 0.016832381 -0.07181476 0.13638066
0000f0 f0 1a a4 3d 66 e3 07 3e 5c 97 02 be 6d 99 89 3d
       0.080129504 0.1327034 -0.12753052 0.06718717
000100 aa 7d ad 3d b5 af 07 3d 11 6f 0b bd a6 3c e0 3c
       0.08471234 0.03312655 -0.034041468 0.02737267
000110 2c 12 ba bb ed 53 29 3d 00 79 b0 bd 48 38 10 3d
       -0.005678436 0.041339803 -0.08616829 0.035209924
000120 d3 eb 84 bd be b7 ed 3d e2 e0 c9 bd e2 6c ba 3d
       -0.064902924 0.11607312 -0.09857346 0.09102799
000130 2e 7a 74 3b 72 76 cb 3d 32 0a fe bd 01 3b ac 3d
       0.003730427 0.09934701 -0.12404288 0.084096916
000140 19 4b e0 3a 01 3b 55 3a 38 61 93 bb 90 4a bf 3d
       0.0017112225 0.00081340974 -0.0044976734 0.093403935
000150 a0 7b 7c 3d 53 5b e6 3c 04 d9 20 bd 5f a5 a0 bc
       0.061641335 0.028119719 -0.039269462 -0.019610105
000160 3e e9 8b bd 2b b8 bf 3c f7 db 97 3b 93 86 da 3d
       -0.06831597 0.023403248 0.004634376 0.10670199
000170 ec 5c 31 3d 07 a3 3d bb 17 80 b3 bc 17 11 c2 3d
       0.043301508 -0.0028936283 -0.021911664 0.09475916
000180 35 6b 92 bd 0e 53 bd 3c ef d7 f5 bd b2 99 27 3d
       -0.07149354 0.023110893 -0.12004077 0.04091806
000190 ec f2 86 3c 71 64 42 3d 04 ac 73 3b 92 d3 3a 3c
       0.016473256 0.04745907 0.0037181387 0.011402981
0001a0 6d 95 59 bb 78 d1 1b bc 4f 3b d0 bd a6 46 3c 3d
       -0.0033200637 -0.00951039 -0.10167562 0.045965813
0001b0 c6 85 71 3d 00 b3 be 3d 41 e4 ef 3a 15 0e ac bc
       0.058965467 0.09311485 0.0018302278 -0.021002809
0001c0 4b fd 38 b9 0c ad cc 3d 4a f1 dd bd 4e 85 4d ba
       -0.00017641966 0.099939436 -0.10837038 -0.00078399933
0001d0 27 a9 61 bd b2 2f 15 3e 93 fe e7 bd dd 8a 91 3d
       -0.055092957 0.14568976 -0.11327853 0.07106564
0001e0 0c 9a 3c bd 93 50 c0 3d f2 02 dc bd 4b ab 14 3d
       -0.046045348 0.09390368 -0.10742749 0.03629617
0001f0 6b 3a 24 bd 53 dd a5 3d 6d 71 34 3a 43 cb 90 3d
       -0.040094774 0.08098855 0.0006883357 0.07070019
000200 a0 40 68 bd d4 3d 58 3c 1f f5 80 bd f8 b7 02 3e
       -0.056702256 0.013198335 -0.06296753 0.12765491
000210 d6 b2 ba bd d4 3f 9c 3d f8 24 28 be 2a 85 a6 3d
       -0.091161415 0.07629362 -0.16420352 0.08130868
000220 7f 9f bb bc a5 fc c5 3b 6c 44 11 3d 6d eb f8 3d
       -0.022903202 0.0060420805 0.035465643 0.12154279
000230 ed 69 e6 bd e2 e3 04 3e 05 b3 a7 bd 87 9f 81 3d
       -0.112506725 0.12977555 -0.08188442 0.063292556
000240 38 11 22 3c a3 70 00 bd 62 66 71 bd a7 59 b3 3d
       0.009891801 -0.03135742 -0.05893553 0.08757334
000250 0f 10 60 bd aa eb 59 3d f9 a5 1e bd a5 a9 ad 3d
       -0.054702815 0.053203262 -0.038732503 0.08479623
000260 8c e7 92 bd 27 99 a5 ba 8f 04 94 bd 11 00 30 3c
       -0.0717307 -0.0012634144 -0.07227432 0.010742203
000270 48 f1 32 bc 4a 08 c5 3d 2b d5 8f 3c 7e cc a4 bc
       -0.010921784 0.09620722 0.017557701 -0.02011704
000280 a1 90 e2 bd 5f 66 2e 3e 97 68 dc 3b 13 79 c8 bc
       -0.11062742 0.17031239 0.0067263353 -0.024471795
000290 5e 4e 08 be 87 d5 6a 3d 94 e7 90 bd c5 f0 ca 3d
       -0.13311145 0.05733254 -0.0707542 0.099092044
0002a0 e8 2f 87 3d 97 09 56 3d af 12 d8 bd 89 16 a1 3d
       0.06600934 0.05225524 -0.105504386 0.07865626
0002b0 e8 30 2e bd 27 32 b5 3d 9d 55 b9 bd 3a 6d f3 3b
       -0.04252711 0.088474564 -0.090495326 0.0074287923
0002c0 2c ec 23 3d e9 87 f3 3d df 89 c5 bc 0a 4f ad 3d
       0.040020153 0.11891157 -0.024113594 0.08462341
0002d0 82 0d 97 bb 6e 75 8f 3d f0 e0 be bd 77 c9 c7 bc
       -0.0046097646 0.0700482 -0.09320247 -0.024388058
0002e0 a2 cd ab bc fc 70 eb 3d b1 3a 47 bb b5 a1 4b 3d
       -0.020972077 0.114961594 -0.0030399973 0.049714763
0002f0 46 2e 50 bc 43 d7 a5 3d aa 7b 90 3c 2e a5 49 3d
       -0.012706345 0.080976985 0.017637093 0.049229793
000300 1c d6 2b 3d d5 8d cd 3d 08 31 97 bc 46 4f 89 3d
       0.041952237 0.10036818 -0.018455997 0.06704573
000310 b1 97 5b 3d 33 6f 26 3e 1a 3d 4c bd f0 45 79 bc
       0.05361146 0.16253357 -0.04986296 -0.015214428
000320 ea 86 21 3c f8 50 2a 3d 63 d2 5c bd a3 43 88 3d
       0.009858826 0.041581124 -0.053911578 0.06653526
000330 18 76 5c bd be fb 30 3e a1 b4 8e bd 45 70 f9 3d
       -0.05382356 0.17283532 -0.06968046 0.12179617
000340 ec dc fc bd 9a fe 98 3d 50 65 9c bd 73 42 da 3d
       -0.12346825 0.074704364 -0.07636511 0.106572054
000350 65 e3 d6 bd 33 bc ef 3d 75 fc e8 3b b0 ac ac 3a
       -0.10492591 0.11705818 0.0071101733 0.0013174023
000360 58 47 7f 3d 54 2f 84 3d 82 c9 e5 bd 13 2b 94 bc
       0.062323898 0.064543396 -0.11220075 -0.018086946
000370 08 e8 2e 3c d3 94 55 3d 10 11 48 bd 60 64 af 3d
       0.010675438 0.052143883 -0.048844397 0.08564067
000380 34 86 e7 3c be 6f 0f bc d3 eb 7f bd 56 3d f5 3d
       0.028262235 -0.008754669 -0.06248076 0.119745895
000390 9c 01 a2 3d 02 44 eb 3d 2f 06 88 bc f2 fd e3 3d
       0.07910463 0.11487581 -0.016604511 0.111324206
0003a0 ef aa bb bc 0b b5 ab 3d ff f1 f4 bd 12 9f 8e ba
       -0.022908656 0.083841406 -0.119602196 -0.0010881147
0003b0 a6 cd 8e bd 84 a6 65 3d 6c cd 81 bd 52 b3 d8 3b
       -0.06972818 0.056067005 -0.06338009 0.0066131735
0003c0 12 4b a4 3b a8 a1 06 3d 8e 1a ca bb 48 66 54 3d
       0.005013832 0.03286901 -0.0061677163 0.051855356
0003d0 0b 71 89 3d 7d 8b d8 3a 59 e6 e8 bd 09 06 e0 3d
       0.06711014 0.0016521063 -0.1137206 0.10938651
0003e0 a0 7b a2 b6 59 ae 0c 3e 9a 9c e4 bd a6 73 51 3c
       -4.842368e-06 0.13738383 -0.11162682 0.01278392
0003f0 82 06 69 3b ad 34 b5 3c 17 4c 13 be 0a be de bc
       0.0035556857 0.022119844 -0.14384495 -0.027190227
